checkpoint_actor.pth (torch_old, 601113 bytes, 10 tensors)

normalizer.weight f4 [33]
1.1005638 0.8927005 1.0946722 0.13340984 0.046941597 0.060698953 0.11433621 0.2286317
0.63707757 0.32524392 0.81464845 0.72491103 0.6582588 1.4578648 1.0366527 1.225239
0.15658893 0.021747954 -0.022591135 0.16830598 -0.50340337 0.5862574 0.55629385 1.2326982
0.83060354 1.0069922 1.1581678 0.22002661 1.0316683 0.25708312 0.045797765 0.17550886
1.5135357
00000000: 46df 8c3f 0588 643f 381e 8c3f 979c 083e
00000010: d545 403d 779f 783d 1a29 ea3d 6e1e 6a3e
00000020: 8417 233f 5f86 a63e cd8c 503f c593 393f
00000030: a683 283f 509b ba3f 09b1 843f a2d4 9c3f
00000040: d958 203e c428 b23c 0b11 b9bc 6758 2c3e
00000050: 0bdf 00bf f714 163f 4669 0e3f 0ec9 9d3f
00000060: 6fa2 543f 1fe5 803f d83e 943f a84e 613e
00000070: b50d 843f 66a0 833e 7096 3b3d 98b8 333e
00000080: 8abb c13f

normalizer.bias f4 [33]
-0.05669431 -0.06729947 -0.10250854 -0.23073754 0.2508654 -0.25725847 -0.1878933 0.16249831
0.11528639 0.043486614 -0.04453808 0.0031997366 -0.018652184 -0.060682 0.026277585 -0.053816143
-0.07883429 0.095143065 0.22629453 -0.012672554 0.0319224 0.020216614 -0.13260499 0.01455901
0.09177839 -0.14091185 -0.114507906 0.23064807 0.027826926 -0.23578627 0.22569372 -0.2593152
0.032914206
00000000: 4b38 68bd 4ed4 89bd ffef d1bd 7646 6cbe
00000010: 6e71 803e 62b7 83be 1a67 40be f565 263e
00000020: 451b ec3d 051f 323d 906d 36bd acb2 513b
00000030: 77cc 98bc b08d 78bd 1744 d73c 516e 5cbd
00000040: df73 a1bd 5eda c23d c1b9 673e 8ba0 4fbc
00000050: 10c1 023d 509d a53c 9ac9 07be ea88 6e3c
00000060: 4ff6 bb3d 324b 10be 1f83 eabd 022f 6c3e
00000070: 4bf5 e33c f571 71be 411c 673e f6c4 84be
00000080: 0cd1 063d

normalizer.running_mean f4 [33]
1.4916441 -1.9967096 -1.083387 0.48390463 0.11891578 -0.0032467041 -0.099929325 0.038142968
-0.05590227 0.015502624 0.031078225 0.012037533 -0.018088544 1.6768626 -3.0874574 -1.4759246
0.015459913 -0.011489489 -0.004561463 -0.018262105 0.7476637 -0.0072112074 0.23843545 0.043833252
0.13277069 -0.047396097 -0.039422207 -0.99999976 -0.061724458 0.0 0.99999976 0.0
-0.033619016
00000000: 32ee be3f 2e94 ffbf 6dac 8abf 59c2 f73e
00000010: 1e8a f33d a8c6 54bb bfa7 ccbd cd3b 1c3d
00000020: c7f9 64bd b8fe 7d3c c397 fe3c 1339 453c
00000030: 6d2e 94bc 6fa3 d63f e798 45c0 19eb bcbf
00000040: 934b 7d3c 693e 3cbc 5378 95bb 699a 95bc
00000050: e366 3f3f fe4b ecbb 6c28 743e 7f8a 333d
00000060: 0af5 073e 6922 42bd 2e79 21bd fcff 7fbf
00000070: c9d2 7cbd 0000 0000 fcff 7f3f 0000 0000
00000080: 18b4 09bd

normalizer.running_var f4 [33]
3.8853865 1.3877894 3.425394 0.34250826 0.09458283 0.17435172 0.13060157 0.8260937
0.10594253 0.14660132 2.8480654 3.1064699 2.4039204 16.77459 5.00694 19.458935
0.22977205 0.26201373 0.20057334 0.30631688 2.6712244 0.7744483 1.8284581 8.745966
8.229294 10.557871 32.1038 6e-45 31.909365 6e-45 6e-45 6e-45
0.3255086
00000000: 2caa 7840 15a3 b13f a839 5b40 3e5d af3e
00000010: a5b4 c13d 4289 323e 6bbc 053e e07a 533f
00000020: 66f8 d83d a81e 163e b446 3640 67d0 4640
00000030: d5d9 1940 5c32 8641 da38 a040 e6ab 9b41
00000040: 5d49 6b3e aa26 863e 1963 4d3e 91d5 9c3e
00000050: 57f5 2a40 3e42 463f ea0a ea3f 7aef 0b41
00000060: 30ab 0341 0aed 2841 4b6a 0042 0400 0000
00000070: 6146 ff41 0400 0000 0400 0000 0400 0000
00000080: 10a9 a63e

layers.0.weight f4 [512, 33]
0.095508166 0.19074732 0.056722265 -0.061524946 0.11371453 -0.022194767 -0.082982294 0.13169089
-0.12133117 0.10302302 0.0049464568 0.072911754 0.19121857 -0.13323304 -0.27169472 0.048419
0.00650652 0.06011371 0.035379965 -0.043912753 -0.024860036 -0.017782316 -0.011297049 -0.11358813
-0.40718448 0.008398318 -0.24851981 0.1123505 -0.18253253 -0.07319258 0.13036543 -0.12257613
-0.14070125 0.017641531 0.108819164 -0.1150122 0.079431675 -0.055339515 0.04452843 0.048275594
0.115447916 0.05868053 0.100965 0.09467925 0.18956102 0.13794802 -0.055819567 -0.16900857
-0.13776997 0.0016416202 -0.13650689 -0.03214546 0.0011619657 -0.046446137 -0.07467025 0.03071033
-0.20286545 -0.09518547 -0.25547504 0.10644337 -0.05643813 0.4795849 0.07767587 -0.08131263
0.10038857 0.055349823 0.22182168 -0.110638194 -0.08774756 0.0059763943 -0.05590114 0.070865914
0.0037074538 -0.06709136 -0.07980333 0.113473915 0.17723657 -0.045221567 0.07934312 -0.18198852
-0.06884621 0.10126132 0.08914126 0.01651888 0.0693399 -0.0064949314 0.08469732 -0.03722076
-0.08348931 -0.047870353 -0.16102348 0.2001556 0.07223632 -0.042108316 0.20828068 -0.013708025
-0.027734552 0.042011134 -0.29444996 -0.04063444 0.05913703 0.15538543 0.07952995 -0.117116034
0.09504893 0.09498409 -0.03497642 -0.13205244 -0.00464668 0.06996435 -0.018322205 0.020462658
0.18582551 -0.09152511 0.063677184 0.017987277 -0.16787772 -0.09650625 -0.016452856 -0.025512977
-0.081655174 0.023455698 -0.116621315 0.151684 0.031784087 0.14461389 -0.1228256 0.037602384
0.12380823 -0.13351217 0.084920555 -0.013396427 0.062415 -0.13873547 0.17635716 0.09774367
-0.032475375 0.08732665 0.12531936 -0.0075133736 -0.04664196 -0.083732665 0.072021104 0.05724703
0.007136914 0.0847727 0.077638164 0.14142902 0.08413613 -0.082443535 -0.116194144 0.023397671
0.043332133 0.06783361 0.07014044 0.10853011 -0.18466426 0.2400054 -0.150832 -0.13508156
-0.30510384 0.15824 -0.14746812 0.18092075 -0.14893174 -0.14824004 0.05576404 -0.006451281
-0.056996953 -0.056510393 -0.036157485 0.009204881 -0.20122789 -0.060046747 -0.027612131 0.0025259897
-0.054998346 0.057309456 0.24683928 -0.07715099 -0.005199 -0.01992872 0.0033641746 -0.008323641
0.0051053734 0.0516744 0.111961015 0.06594624 0.0006596858 0.059428018 0.04902775 -0.14155936
0.041717753 0.31444153 -0.024107194 0.04045914 -0.054662183 -0.23127882 -0.2021096 0.09284473
0.08121624 0.16757 -0.21477607 0.20461203 0.1120046 0.020790817 -0.04082184 -0.07157426
-0.018639194 -0.03758183 -0.10797758 0.13227394 -0.053644154 -0.11763163 0.12031891 -0.04579868
-0.16977689 0.0017444824 0.046258952 0.0044063185 0.048359882 0.04080161 -0.05365222 -0.057308707
-0.36178553 -0.16115516 0.27962056 0.18605293 -0.19658093 0.20595591 0.39840174 0.046115458
-0.08459389 -0.010057234 0.02084456 -0.07513562 0.03095571 0.03831093 -0.14614019 -0.03249705
-0.027919566 0.008847585 0.09149636 0.046084456 0.15978873 0.07805558 0.11308921 0.08642076
-0.097360656 -0.056477945 0.017194878 -0.007643537 -0.043665577 -0.0057792896 0.14690334 0.2071369
00000000: c999 c33d 4453 433e 9b55 683d 9501 7cbd
00000010: 2ae3 e83d cdd1 b5bc 9ff2 a9bd fad9 063e
00000020: 7a7c f8bd bcfd d23d e315 a23b c252 953d
00000030: cdce 433e 3e6e 08be 921b 8bbe 0053 463d
00000040: a534 d53b cb39 763d 95ea 103d dcdd 33bd
00000050: 46a7 cbbc 38ac 91bc 4217 39bc e5a0 e8bd
00000060: 7c7a d0be 1999 093c fa7b 7ebe 0518 e63d
00000070: cfe9 3abe fee5 95bd 847e 053e 3209 fbbd
00000080: fd13 10be f984 903c 95dc de3d 848b ebbd
00000090: 13ad a23d b0ab 62bd 7163 363d a1bc 453d
000000a0: f56f ec3d ff5a 703d bdc6 ce3d 32e7 c13d
000000b0: 491c 423e 3f42 0d3e 0fa3 64bd 9510 2dbe
000000c0: 9213 0dbe a22b d73a 76c8 0bbe f5aa 03bd
000000d0: 194d 983a 4e3e 3ebd b7ec 98bd 3b94 fb3c
000000e0: f6bb 4fbe 9af0 c2bd a0cd 82be fbfe d93d
000000f0: ab2b 67bd 278c f53e 8714 9f3d 3c87 a6bd
00000100: 8698 cd3d 7fb6 623d 3925 633e 4796 e2bd
00000110: feb4 b3bd a1d5 c33b 98f8 64bd 2622 913d
00000120: c1f8 723b 3267 89bd ee6f a3bd 0365 e83d
00000130: 817d 353e 403a 39bd a57e a23d 335b 3abe
00000140: 3eff 8cbd 1862 cf3d b18f b63d 9a52 873c
00000150: 1402 8e3d 6fd3 d4bb ca75 ad3d cc74 18bd
00000160: 72fc aabd b413 44bd 57e3 24be 97f5 4c3e
00000170: a3f0 933d c579 2cbd 8847 553e a097 60bc
00000180: 9233 e3bc de13 2c3d 25c2 96be 4c70 26bd
00000190: ac39 723d 5c1d 1f3e 99e0 a23d 88da efbd
000001a0: 03a9 c23d 0587 c23d 6f43 0fbd c138 07be
000001b0: 2d43 98bb 7849 8f3d 7318 96bc 4ea1 a73c
000001c0: 0b49 3e3e 8471 bbbd 2f69 823d 0e5a 933c
000001d0: 23e8 2bbe 12a5 c5bd 24c8 86bc 9700 d1bc
000001e0: d43a a7bd 2a26 c03c 28d7 eebd 0d53 1b3e
000001f0: 0830 023d aa15 143e fd8b fbbd f504 1a3d
00000200: 2b8f fd3d 6ab7 08be d4ea ad3d b07c 5bbc
00000210: dfa6 7f3d ac10 0ebe f996 343e d52d c83d
00000220: e604 05bd 51d8 b23d b853 003e bf32 f6bb
00000230: a40b 3fbd 087c abbd cd7f 933d dd7b 6a3d
00000240: c6dc e93b 4f9d ad3d c200 9f3d c5d2 103e
00000250: 904f ac3d 28d8 a8bd 32f7 edbd 79ac bf3c
00000260: 097d 313d 59ec 8a3d caa5 8f3d 0945 de3d
00000270: a118 3dbe fac3 753e b473 1abe d252 0abe
00000280: 9236 9cbe ab09 223e e201 17be 4a43 393e
00000290: 9081 18be 3dcc 17be d668 643d 4465 d3bb
000002a0: a375 69bd 7177 67bd df19 14bd 12d0 163c
000002b0: af0e 4ebe 94f3 75bd d632 e2bc 138b 253b
000002c0: f245 61bd 52bd 6a3d 70c3 7c3e 5701 9ebd
000002d0: 5f5c aabb 8e41 a3bc 7c79 5c3b e15f 08bc
000002e0: fa4a a73b 89a8 533d d14b e53d d30e 873d
000002f0: c4ee 2c3a cb6a 733d 52d1 483d f0f4 10be
00000300: 3ce0 2a3d 7bfe a03e 737c c5bc 7cb8 253d
00000310: 74e5 5fbd 5bd4 6cbe d2f5 4ebe 6125 be3d
00000320: b354 a63d 7897 2b3e 42ee 5bbe d185 513e
00000330: ab62 e53d 8151 aa3c cd34 27bd 8795 92bd
00000340: 39b1 98bc 68ef 19bd 5923 ddbd d272 073e
00000350: f9b9 5bbd dae8 f0bd c369 f63d 6697 3bbd
00000360: fed9 2dbe 1ea7 e43a 077a 3d3d e162 903b
00000370: 0315 463d 971f 273d 6ec2 5bbd 89bc 6abd
00000380: f43b b9be dc05 25be 6d2a 8f3e a984 3e3e
00000390: 834c 49be 1be6 523e 50fb cb3e 90e3 3c3d
000003a0: 903f adbd 19c7 24bc 36c2 aa3c b4e0 99bd
000003b0: d496 fd3c eceb 1c3d c6a5 15be a01b 05bd
000003c0: 93b7 e4bc 76f5 103c 7262 bb3d 0ec3 3c3d
000003d0: a89f 233e 9bdb 9f3d 519b e73d 5efd b03d
000003e0: 0665 c7bd 6b55 67bd 46dc 8c3c a376 fabb
000003f0: adda 32bd 3260 bdbb d46d 163e b21b 543e

layers.0.bias f4 [512]
0.055612862 -0.13369472 -0.11106046 -0.13054155 -0.11297501 0.0806021 -0.20793119 -0.13684636
0.051461384 -0.0942398 0.06640562 -0.044762906 0.139629 0.04505799 0.08249497 -0.08166168
0.13936952 -0.008649215 -0.084597886 -0.08180178 -0.13406248 0.02194033 -0.10134632 0.1263836
-0.06244821 -0.29562324 0.032320525 0.090636134 -0.12694868 0.056821417 0.12949273 0.06374059
-0.059744455 -0.079961784 0.016116722 0.099058814 0.073178515 0.01824183 0.038608197 -0.05277005
0.067104556 -0.023962364 -0.10380368 -0.0142906485 -0.027524883 0.036149316 0.015360448 -0.03866856
-0.20325829 -0.09560726 -0.06488835 -0.04494922 0.0030069277 0.11714427 -0.023960188 -0.17444853
0.14692569 0.022033209 -0.10302793 0.10941329 -0.091669805 -0.10677365 -0.040102817 -0.1648145
-0.042486914 0.04240432 -0.008661019 0.114967875 0.04540384 0.01515887 0.020298403 0.08864997
-0.039039243 0.077583626 -0.25862154 -0.08298484 -0.12121432 -0.019698547 -0.12027709 -0.0066133104
-0.22152612 0.14951582 0.09872466 -0.07399615 -0.08786867 -0.11722019 0.009820688 -0.14183027
0.10129534 0.04557729 -0.04388436 -0.065076455 -0.0966879 -0.021584366 0.072840415 -0.06201192
0.019985372 0.02040178 0.112794735 0.03918175 0.07219584 0.04209371 -0.30825126 0.15027444
0.1426011 -0.12323521 -0.04158149 0.16961353 0.0001677585 -0.045766015 -0.0770883 -0.13625687
0.052275915 -0.21891645 -0.031031616 0.24561694 0.1368611 -0.031482697 0.04095819 -0.08087671
-0.0683666 -0.11272122 -0.15324855 0.012482331 -0.15953483 0.16105452 0.030748421 -0.1313266
-0.025202475 0.071742825 -0.13364466 -0.13180825 0.0843575 0.043432135 0.092268266 -0.22093481
0.07714523 0.063339554 0.16470893 -0.09879852 0.05189538 0.099418536 -0.029475491 -0.05877794
-0.058410347 -0.13586164 -0.028797898 -0.109549835 -0.21789159 0.029152844 0.037751704 -0.1908206
-0.18436329 -0.093668416 0.1375305 -0.1653075 -0.27196717 0.054789905 -0.09047076 0.012586698
-0.051777914 0.08632856 0.16903056 -0.028104303 -0.033662766 -0.088424735 0.115662985 -0.02207451
0.11570219 -0.104607284 -0.036997695 0.09855623 -0.002118648 0.13547306 0.10779349 0.113102555
-0.027127929 0.053022835 0.06273711 -0.15845789 0.03948827 0.22833468 0.08844032 -0.07112088
-0.1916864 -0.06169348 0.11676084 0.007196767 -0.058145452 0.015679218 -0.13878377 -0.073250405
-0.11480243 0.10597839 -0.024754306 -0.09028258 0.021343969 -0.06347063 -0.057459988 -0.06490418
0.02151467 0.07528061 0.1361635 -0.056884296 -0.20835449 0.0021302337 -0.15337005 -0.0034872128
0.027367592 -0.107358426 -0.057174858 0.16810524 -0.1015679 -0.025519386 -0.20548251 0.030448938
0.134811 -0.043124948 0.1152954 -0.26620847 -0.110245205 0.14800206 0.094710015 0.03324632
-0.017708166 0.08642105 -0.17315319 -0.11667808 0.18621682 -0.077133246 -0.048405167 -0.016755486
0.0058405683 -0.09018219 0.012827879 -0.12812291 -0.06418468 0.042487413 0.18450165 0.10168861
-0.009688214 0.16965435 -0.17617953 -0.121732004 -0.0069268844 0.031044018 -0.13235468 0.005057936
0.015027528 -0.07264298 0.08535467 0.08219778 0.104694575 -0.04094871 -0.028947769 0.057087302
00000000: 50ca 633d 45e7 08be ab73 e3bd afac 05be
00000010: 715f e7bd b712 a53d eaeb 54be 7421 0cbe
00000020: 2cc9 523d cc00 c1bd abff 873d 4f59 37bd
00000030: e8fa 0e3e ba8e 383d 1ff3 a83d 3d3e a7bd
00000040: e2b6 0e3e 70b5 0dbc a841 adbd b187 a7bd
00000050: ad47 09be 35bc b33c a98e cfbd b46a 013e
00000060: b2c9 7fbd ee5b 97be 8762 043d 709f b93d
00000070: d6fe 01be 93bd 683d be99 043e 6d8a 823d
00000080: 9ab6 74bd 01c3 a3bd 3707 843c 59df ca3d
00000090: 9ede 953d e46f 953c a123 1e3d 6825 58bd
000000a0: 1d6e 893d b84c c4bc 0697 d4bd 5323 6abc
000000b0: dd7b e1bc 4e11 143d 63aa 7b3c ed62 1ebd
000000c0: f122 50be bdcd c3bd 2fe4 84bd ac1c 38bd
000000d0: e00f 453b 56e9 ef3d 2848 c4bc a3a2 32be
000000e0: b073 163e fd7e b43c 4f00 d3bd 1314 e03d
000000f0: 61bd bbbd 25ac dabd da42 24bd 22c5 28be
00000100: c206 2ebd 27b0 2d3d f2e6 0dbc 4774 eb3d
00000110: 60f9 393d e95c 783c d648 a63c 1e8e b53d
00000120: 9de7 1fbd 2ae4 9e3d 0b6a 84be f5f3 a9bd
00000130: 373f f8bd d95e a1bc d653 f6bd 78b4 d8bb
00000140: bed7 62be ad1a 193e 2830 ca3d 4b8b 97bd
00000150: 7df4 b3bd 2411 f0bd f3e6 203c f43b 11be
00000160: ee73 cf3d 41af 3a3d 16c0 33bd ce46 85bd
00000170: 4e04 c6bd b2d1 b0bc 5b2d 953d 3600 7ebd
00000180: 5db8 a33c a221 a73c ed00 e73d 0b7d 203d
00000190: 6adb 933d 746a 2c3d 1cd3 9dbe 8be1 193e
000001a0: 0606 123e be62 fcbd 5a51 2abd 2baf 2d3e
000001b0: 54e8 2f39 2575 3bbd 78e0 9dbd ec86 0bbe
000001c0: 451f 563d a22b 60be 0436 febc 0283 7b3e
000001d0: 5125 0c3e 00f4 00bd c6c3 273d b0a2 a5bd
000001e0: ca03 8cbd 62da e6bd 30ed 1cbe b182 4c3c
000001f0: 195d 23be 7aeb 243e 1de4 fb3c 7b7a 06be
00000200: 6c75 cebc e7ed 923d 25da 08be bef8 06be
00000210: a0c3 ac3d e5e5 313d 25f7 bc3d bc3c 62be
00000220: 51fe 9d3d 2bb8 813d 75a9 283e e156 cabd
00000230: 4090 543d f29b cb3d 9676 f1bc 23c1 70bd
00000240: b03f 6fbd 501f 0bbe 92e9 ebbc aa5b e0bd
00000250: f91e 5fbe f2d1 ee3c 88a1 1a3d 7a66 43be
00000260: bbc9 3cbe 3ad5 bfbd ccd4 0c3e 5f46 29be
00000270: 483f 8bbe 616b 603d bc48 b9bd 7038 4e3c
00000280: 1415 54bd 07cd b03d 5916 2d3e ff3a e6bc
00000290: f8e1 09bd 0718 b5bd b7e0 ec3d 9ad5 b4bc
000002a0: 45f5 ec3d 583c d6bd e58a 17bd d9d7 c93d
000002b0: 04d9 0abb 73b9 0a3e d5c2 dc3d 50a2 e73d
000002c0: 643b debc 792e 593d 507c 803d c942 22be
000002d0: 74be 213d 91d0 693e 3320 b53d d3a7 91bd
000002e0: 7149 44be 4db2 7cbd 4f20 ef3d dbd2 eb3b
000002f0: ed29 6ebd b471 803c 551d 0ebe 4f04 96bd
00000300: 891d ebbd 330b d93d 8bc9 cabc 13e6 b8bd
00000310: 8cd9 ae3c e4fc 81bd 2a5b 6bbd 7cec 84bd
00000320: 893f b03c b82c 9a3d 726e 0b3e 82ff 68bd
00000330: e15a 55be 649b 0b3b 0a0d 1dbe b989 64bb
00000340: 0032 e03c bcde dbbd 2f30 6abd c823 2c3e
00000350: d502 d0bd 080e d1bc 026a 52be 0d70 f93c
00000360: e50b 0a3e c9a3 30bd ff1f ec3d 7a4c 88be
00000370: 3dc8 e1bd da8d 173e 53f7 c13d 4b2d 083d
00000380: b710 91bc 85fd b03d 124f 31be ebf4 eebd
00000390: 9faf 3e3e 09f8 9dbd 7f44 46bd cd42 89bc
000003a0: 3d62 bf3b 71b1 b8bd 062c 523c a732 03be
000003b0: 4273 83bd 4807 2e3d 00ee 3c3e 1e42 d03d
000003c0: 51bb 1ebc dfb9 2d3e 6868 34be a14e f9bd
000003d0: ebfa e2bb 0650 fe3c fc87 07be 0bbd a53b
000003e0: 0536 763c d8c5 94bd 6ece ae3d 4f57 a83d
000003f0: 1c6a d63d d6b9 27bd df23 edbc 60d4 693d

layers.1.weight f4 [256, 512]
-0.070668854 -0.0099297315 0.19273917 -0.3019494 0.13600652 0.015756153 0.032963406 -0.017199997
-0.681412 0.33654192 -0.031598993 0.12885062 -0.062226333 0.1032384 -0.15711278 -0.024134515
-0.12426311 -0.24888772 0.009537235 0.14764675 -0.027449641 -0.12595306 -0.064776376 0.104720354
-0.1536932 -0.06527859 -0.06925065 0.018335218 -0.09972677 -0.19571926 0.07048628 -0.025268773
0.09712308 -0.0840968 -0.09319985 -0.022023944 0.023748552 -0.38131014 -0.061186537 0.0074151275
0.15794967 -0.026816376 0.11468765 -0.20515198 -0.13703603 0.025143793 -0.0022792898 0.14033903
0.26283354 -0.0017316167 0.032051414 -0.041880447 -0.011161728 -0.06239955 0.106317036 0.04522242
-0.026245434 -0.10261812 -0.026761843 -0.055859577 0.045626417 0.07033473 -0.0134176435 -0.04107513
-0.16448903 -0.20259152 0.030497665 0.088986844 -0.035249013 -0.20673674 -0.08404998 0.06671105
-0.11101777 0.034006488 -0.0255524 0.07833609 0.25080597 -0.028947664 0.0079564 0.15694667
0.06291493 0.12403735 -0.028547214 0.2556696 0.04601469 0.040296454 0.0704337 0.12726592
0.083814174 0.07616863 0.10480152 0.07557006 0.17027347 0.11619533 -0.10624965 0.100048594
-0.06540094 0.14423808 0.0060870266 -0.14545879 -0.032783933 -0.11611002 0.0097140735 0.0021952933
-0.541344 0.14556588 0.09943675 -0.6127867 0.05822029 0.043560926 0.11384498 0.22741114
0.11334964 0.009849789 0.016326139 -0.16384113 -0.11578162 0.09120726 -0.028688857 0.11825925
-0.2422031 -0.019113943 -0.10879322 -0.03216786 -0.062317837 -0.19431585 0.13588531 0.073936
0.010093178 0.022387555 -0.05867198 0.04257025 0.08473728 -0.3478789 0.009452888 0.024655787
0.03390452 0.078660466 -0.042210855 -0.016180245 -0.1277498 -0.09737445 0.026497498 -0.10631063
0.09963698 0.14980675 0.031242698 0.016624257 0.093412034 -0.030774856 -0.03079708 -0.16433491
0.13897236 0.011408956 0.022320043 0.23655787 -0.011788695 -0.04445738 -0.25102496 -0.4201136
-0.035302814 -0.063348435 0.11171471 -0.14670593 0.14897339 -0.008384638 -0.22811168 0.0015366162
0.07558141 0.011027182 -0.13164642 -0.28704286 -0.22820649 -0.06600856 0.0449921 0.06381123
0.07689744 -0.027779061 -0.08392059 0.08615688 0.19237266 -0.12254597 -0.19046752 0.07260626
-0.15199365 -0.051813398 0.09488016 0.027018555 0.009731492 0.0060377684 -0.15405336 -0.007270736
0.13524841 0.056954265 -0.073004685 0.1176049 0.21914604 -0.19925866 0.03304428 -0.23693645
-0.14351155 -0.03910007 -0.043398898 0.02979838 0.20571375 -0.0040248223 0.13070726 -0.17002168
0.117305845 -0.14632179 -0.13457166 -0.13764225 -0.07534665 0.102568164 -0.16393024 -0.057047267
0.009400603 -0.19419608 0.014735356 -0.04215646 0.06525445 -0.0077675413 -0.04879402 -0.0064756842
-0.20154475 -0.019280246 -0.14851621 0.0389315 -0.08997892 -0.3247152 0.01897423 0.15156397
0.123743825 0.040283218 0.03192462 0.1252247 -0.014183425 -0.09565366 -0.099071205 0.14576058
-0.03332061 -0.085781835 0.11903463 -0.026335614 -0.012904662 -0.1618078 0.30845857 -0.4773764
-0.109825574 -0.0882313 -0.07358221 0.014494538 -0.11283803 -0.0016178748 -0.08478523 -0.100292265
00000000: d5ba 90bd 50b0 22bc 6b5d 453e 1d99 9abe
00000010: 4b45 0b3e 0c13 813c a304 073d 02e7 8cbc
00000020: 0471 2ebf 394f ac3e f26d 01bd 6bf1 033e
00000030: 0ae1 7ebd a76e d33d 2ce2 20be bfb5 c5bc
00000040: a87d febd 6cdc 7ebe 1042 1c3c b630 173e
00000050: 12de e0bc d7f9 00be 7aa9 84bd a077 d63d
00000060: c061 1dbe c8b0 85bd 49d3 8dbd bd33 963c
00000070: 8c3d ccbd a16a 48be 1c5b 903d 7500 cfbc
00000080: 77e8 c63d f13a acbd 90df bebd 8f6b b4bc
00000090: 538c c23c 153b c3be bc9e 7abd 99fa f23b
000000a0: 8fbd 213e 04ae dbbc 5ce1 ea3d 5c13 52be
000000b0: 2c53 0cbe 5bfa cd3c 2360 15bb 09b5 0f3e
000000c0: 1e92 863e 6af7 e2ba 5848 033d d58a 2bbd
000000d0: aedf 36bc ac96 7fbd bfbc d93d 253b 393d
000000e0: aa00 d7bc 7329 d2bd a73b dbbc 03cd 64bd
000000f0: c4e2 3a3d a80b 903d add5 5bbc 653e 28bd
00000100: d06f 28be 2774 4fbe 3dd6 f93c bc3e b63d
00000110: 4561 10bd ccb2 53be 6522 acbd ce9f 883d
00000120: 495d e3bd 634a 0b3d 4453 d1bc ac6e a03d
00000130: a469 803e a723 edbc 8f5b 023c a1b6 203e
00000140: 8bd9 803d 4b07 fe3d d9db e9bc 20e7 823e
00000150: e679 3c3d e50d 253d 8b3f 903d ff51 023e
00000160: c4a6 ab3d 4cfe 9b3d 2ea2 d63d 7ac4 9a3d
00000170: 2b5c 2e3e d1f7 ed3d 6b99 d9bd 47e6 cc3d
00000180: eef0 85bd 26b3 133e ae75 c73b 26f3 14be
00000190: 7248 06bd 17cb edbd c727 1f3c e9de 0f3b
000001a0: 8595 0abf 390f 153e 7fa5 cb3d 97df 1cbf
000001b0: 6678 6e3d f16c 323d 8f27 e93d 77de 683e
000001c0: db23 e83d 0261 213c 65be 853c f8c5 27be
000001d0: ea1e edbd dfca ba3d e504 ebbc e831 f23d
000001e0: 1704 78be d894 9cbc fbce debd 72c2 03bd
000001f0: fd40 7fbd bcfa 46be 8525 0b3e c26b 973d
00000200: db5d 253c 1b66 b73c 0852 70bd 245e 2e3d
00000210: bd8a ad3d 2f1d b2be 49e0 1a3c effa c93c
00000220: 77df 0a3d bd18 a13d 4ae5 2cbd 6f8c 84bc
00000230: d8d0 02be 416c c7bd 4811 d93c 63b9 d9bd
00000240: 790e cc3d f166 193e b0f0 ff3c 982f 883c
00000250: cf4e bf3d 8d1b fcbc 284a fcbc 6947 28be
00000260: c54e 0e3e a1ec 3a3c 86d8 b63c 3a3c 723e
00000270: 5f25 41bc f118 36bd 5886 80be 2119 d7be
00000280: af99 10bd d3bc 81bd afca e43d 143a 16be
00000290: 7b8c 183e b85f 09bc 1c96 69be 4968 c93a
000002a0: 6dca 9a3d 5bab 343c 52ce 06be 48f7 92be
000002b0: f6ae 69be 7f2f 87bd a349 383d 76af 823d
000002c0: 687c 9d3d ea90 e3bc 8fde abbd 0573 b03d
000002d0: 57fd 443e 62f9 fabd eb09 43be 97b2 943d
000002e0: 39a4 1bbe 493a 54bd 8850 c23d 0456 dd3c
000002f0: d670 1f3c 79d8 c53b 2ac0 1dbe 5b3f eebb
00000300: 8f7e 0a3e e048 693d 7b83 95bd d6da f03d
00000310: d267 603e 760a 4cbe 7059 073d 789f 72be
00000320: b1f4 12be 6527 20bd 0bc3 31bd bb1b f43c
00000330: a0a6 523e a8e2 83bb 20d8 053e 2a1a 2ebe
00000340: 0c3e f03d 61d5 15be 27cd 09be 17f2 0cbe
00000350: 584f 9abd 420f d23d 54dd 27be 65aa 69bd
00000360: fd04 1a3c 56db 46be 906c 713c 41ac 2cbd
00000370: 20a4 853d dc86 febb 3ddc 47bd fa31 d4bb
00000380: bf61 4ebe 9bf1 9dbc a214 18be a376 1f3d
00000390: de46 b8bd 1241 a6be d86f 9b3c 9633 1b3e
000003a0: 676d fd3d 0400 253d 64c3 023d e73a 003e
000003b0: 9961 68bc 11e6 c3bd d8e5 cabd 4342 153e
000003c0: 317b 08bd 63ae afbd 6ec8 f33d c9bd d7bc
000003d0: 136e 53bc f2b0 25be 48ee 9d3e ae6a f4be
000003e0: 3bec e0bd 9db2 b4bd 45b2 96bd 807a 6d3c
000003f0: a017 e7bd df0e d4ba e1a3 adbd 0866 cdbd

layers.1.bias f4 [256]
0.0033565685 -0.015286565 -0.029820912 -0.049472075 -0.10418758 0.03772334 -0.006852242 -0.0050511607
-0.07762354 -0.024817782 -0.014281523 0.06515248 -0.0073497267 -0.0445708 0.09412775 0.0509804
-0.07780148 -0.074820325 -0.059785843 0.021944122 -0.0016231174 0.008497351 -0.023547523 0.08307689
0.046180982 -0.03693476 0.08939788 -0.06878408 0.012039697 0.029488713 0.07340412 0.022598337
0.0040157563 0.07840051 -0.00419563 -0.12912801 -0.03313666 0.04217795 0.05274431 -0.021602508
0.006390156 0.105375186 -0.046610966 -0.00014452067 0.10350078 0.03602382 0.02624705 -0.0033608929
0.059989024 0.05363179 -0.024454061 -0.054762956 -0.056367707 0.012052645 -0.041901935 0.047118086
-0.009067939 0.08300065 0.024576351 -0.10338806 -0.061272293 0.03882893 0.07415901 -0.0030946035
0.13703117 -0.02697238 0.008831793 0.09717763 -0.076714166 -0.03371025 -0.07417037 0.06825581
0.079186164 0.021244323 -0.047819592 0.022548009 -0.07225484 0.10861007 -0.14277528 0.027055884
-0.0027659207 -0.005993277 0.0019094435 0.060960084 0.027721006 -0.0738604 -0.016830256 -0.012781684
-0.0020212093 0.009868756 0.07525525 0.06484486 0.008781932 -0.031635564 -0.06577691 -0.09134789
-0.03013395 -0.06352159 -0.089634106 -0.018346746 -0.01073973 0.0074994415 0.039919302 -0.0005139321
0.0618618 -0.086069375 0.012946867 0.07302311 -0.03925826 -0.057045557 0.05659002 0.04296563
0.004597076 0.006650348 0.020329561 -0.0033317986 0.024936086 -0.034946885 -0.07724321 -0.051378217
0.06096569 -0.0077085383 -0.06023182 -0.018241603 0.074448645 0.0040512946 0.002171663 -0.0056271423
0.060164873 0.11072265 -0.024104504 -0.0099224895 0.030131863 0.062380165 0.07278463 0.05615385
0.0013240485 0.04539476 -0.04293496 0.020435028 -0.09955413 -0.00014089026 -0.06530513 0.007263599
-0.025166938 -0.06934223 -0.057252686 -0.01087165 -0.018129056 0.06322974 -0.03225133 -0.012859624
-0.091182545 0.025092497 0.055464238 -0.008833146 0.04012584 0.034465548 0.050876264 0.015679862
-0.013293309 0.035416022 0.005124169 0.07469383 0.055696126 -0.11223746 0.0137089435 -0.051498435
-0.000889997 0.042716995 0.022459788 0.07505335 0.08615755 -0.027138516 0.06715233 0.030712793
0.05851829 0.07842438 -0.0067890226 -0.07669849 0.054040883 0.029113531 0.031182948 0.08234617
-0.0045802924 0.055154584 -0.018169297 -0.008435227 0.018874647 -0.020955747 0.10056319 -0.004751507
-0.036297485 0.042920556 -0.1900498 0.01638209 0.10648738 0.03439487 0.042330418 -0.075913385
-0.029727686 0.057175413 -0.011784346 -0.005759045 -0.08998991 -0.044703685 -0.08544722 -0.064171635
0.112913914 0.022932136 0.077942215 -0.1196389 0.017326241 -0.016348137 -0.10438984 -0.023489714
0.059444513 0.028579803 -0.022781154 -0.002004178 0.070367455 0.06418455 -0.032650396 0.028735416
0.009092142 0.03625427 0.073910005 0.041718815 0.01724132 0.007452129 0.014530114 -0.006716501
0.0045976085 -0.024235088 0.021231048 -0.049141042 -0.024394574 -0.01358839 -0.11108464 0.07059558
-0.051489856 -0.0783927 0.095149696 0.021929057 -0.118295535 0.10077078 0.040110122 -0.09651058
0.05193395 0.08667847 0.020471316 0.021165239 -0.0866192 0.024777316 0.06339175 -0.00065215555
00000000: e0f9 5b3b 8074 7abc fc4a f4bc 3ba3 4abd
00000010: 4c60 d5bd ca83 1a3d c688 e0bb 3584 a5bb
00000020: 17f9 9ebd a94e cbbc 0dfd 69bc aa6e 853d
00000030: fad5 f0bb df8f 36bd 0dc6 c03d d3d0 503d
00000040: 6256 9fbd 663b 99bd 00e2 74bd 29c4 b33c
00000050: c8be d4ba 7938 0b3c bce6 c0bc 3724 aa3d
00000060: 4528 3d3d e748 17bd 3c16 b73d abde 8cbd
00000070: 2642 453c 5092 f13c e654 963d 2620 b93c
00000080: 9b96 833b 7290 a03d 7f7b 89bb 223a 04be
00000090: 4eba 07bd c9c2 2c3d 6b0a 583d bef7 b0bc
000000a0: 8464 d13b f2ce d73d 24eb 3ebd 798a 17b9
000000b0: 38f8 d33d b78d 133d 0e04 d73c 6d42 5cbb
000000c0: 0db7 753d 02ad 5b3d e253 c8bc 1f4f 60bd
000000d0: d3e1 66bd 7578 453c 5da1 2bbd e5fe 403d
000000e0: b191 14bc 3ffc a93d 5854 c93c 1fbd d3bd
000000f0: a8f8 7abd 160b 1f3d aee0 973d d5ce 4abb
00000100: e651 0c3e 2ef5 dcbc 3ab3 103c 1105 c73d
00000110: 511c 9dbd c213 0abd a3e6 97bd b4c9 8b3d
00000120: 5b2c a23d 9308 ae3c 7ade 43bd 9ab6 b83c
00000130: 58fa 93bd f56e de3d af33 12be 4da4 dd3c
00000140: 7344 35bb 4063 c4bb 4b46 fa3a 48b1 793d
00000150: 2a17 e33c 1f44 97bd 9bdf 89bc 456a 51bc
00000160: 4476 04bb 90b0 213c 6d1f 9a3d 62cd 843d
00000170: 18e2 0f3c 4b94 01bd 0bb6 86bd 9a14 bbbd
00000180: 79db f6bc 9b17 82bd 1692 b7bd ea4b 96bc
00000190: b1f5 2fbc e0bd f53b 6c82 233d 66b9 06ba
000001a0: cc62 7d3d 2445 b0bd 191f 543c 248d 953d
000001b0: 45cd 20bd 9aa8 69bd f0ca 673d bafc 2f3d
000001c0: 12a3 963b 2aeb d93b 2e8a a63c 4e5a 5abb
000001d0: c346 cc3c 7724 0fbd b031 9ebd f771 52bd
000001e0: 29b7 793d e897 fcbb a4b5 76bd 6a6f 95bc
000001f0: 8878 983d b9c0 843b 7652 0e3b e463 b8bb
00000200: 716f 763d 8fc2 e23d cf76 c5bc f091 22bc
00000210: 19d7 f63c 5882 7f3d 1c10 953d 9401 663d
00000220: b28b ad3a dbef 393d 92dc 2fbd 5c67 a73c
00000230: 09e3 cbbd f1bb 13b9 b2be 85bd 7c03 ee3b
00000240: e52a cebc 4d03 8ebd cb81 6abd 011f 32bc
00000250: 6383 94bc 987e 813d f819 04bd 2cb1 52bc
00000260: eabd babd c88e cd3c 782e 633d e6b8 10bc
00000270: fe5a 243d bf2b 0d3d a163 503d 0e73 803c
00000280: 2ecc 59bc 6410 113d a5e8 a73b 14f9 983d
00000290: 9f21 643d c1dc e5bd 7a9b 603c 06f0 52bd
000002a0: b04e 69ba 04f8 2e3d 97fd b73c 92b5 993d
000002b0: 5f73 b03d 9851 debc 2987 893d 6599 fb3c
000002c0: e0b0 6f3d f69c a03d 7376 debb 1914 9dbd
000002d0: f959 5d3d 807f ee3c 6273 ff3c 1ca5 a83d
000002e0: 4716 96bb c6e9 613d c7d7 94bc e833 0abc
000002f0: 019f 9a3c 63ab abbc 13f4 cd3d 88b2 9bbb
00000300: acac 14bd 77cd 2f3d 6a9c 42be bc33 863c
00000310: 0e16 da3d a3e1 0c3d a962 2d3d 7a78 9bbd
00000320: 7a87 f3bc c430 6a3d 2113 41bc 5fb6 bcbb
00000330: a14c b8bd 361b 37bd f4fe aebd 6b6c 83bd
00000340: 693f e73d 2ddc bb3c 2ba0 9f3d 3d05 f5bd
00000350: c3ef 8d3c 87ec 85bc 57ca d5bd 806d c0bc
00000360: 177c 733d 3120 ea3c 8b9f babc 8758 03bb
00000370: d01c 903d 3073 833d 6cbc 05bd 8966 eb3c
00000380: 35f7 143c 5b7f 143d 215e 973d 59e1 2a3d
00000390: ab3d 8d3c fd30 f43b b70f 6e3c 1816 dcbb
000003a0: 89a7 963b aa88 c6bc bcec ad3c 1e48 49bd
000003b0: 21d7 c7bc d7a1 5ebc 5880 e3bd 6a94 903d
000003c0: 07e7 52bd 5a8c a0bd d8dd c23d 91a4 b33c
000003d0: ee44 f2bd e960 ce3d 834a 243d 57a7 c5bd
000003e0: b2b8 543d 7b84 b13d 76b3 a73c b962 ad3c
000003f0: 6865 b1bd ccf9 ca3c 89d3 813d 6bf5 2aba

output.weight f4 [4, 256]
-0.3987664 0.11878074 0.44543302 0.6167916 0.441196 0.038158406 -0.5634636 -0.15968907
0.4157187 0.5417316 -0.26376453 0.3293814 -0.17297608 0.79503745 -1.4447602 -0.003825682
0.13144064 0.6681369 0.22008373 0.07458946 -0.7984598 0.720591 -0.051949356 0.26567936
0.2670372 0.13164699 -1.0108064 -1.0647075 1.0028439 -0.3678754 -0.9827434 -0.57210094
0.16237085 0.53951645 -0.5309808 1.0630544 -0.4368602 0.56923866 0.27629438 -0.034994617
0.3319956 -0.40821093 0.5748737 -0.19053088 -1.2864457 -0.051645502 -0.04026225 -0.06165304
-0.15204915 0.26023388 -0.59606594 0.097424835 0.28863934 -0.3677813 0.51679283 0.0864027
-0.12885575 -0.557319 -0.23360543 0.32039922 0.44591478 -0.24495214 -0.17923866 0.9202247
-0.92892057 0.49310315 -0.2839586 -0.60578775 -0.9524989 0.2208594 0.28529534 -0.27760872
-0.109012775 -0.6293267 -0.6154868 -0.06553743 -0.6558902 -0.20253596 0.14410149 0.37393922
-0.21192047 0.5206106 -0.19917676 0.067591086 0.87115896 0.25386927 0.2736263 -0.6276039
0.3634332 0.89543474 0.96226645 -0.71634454 -0.07771036 -0.15975088 0.85823685 -0.2741037
0.2946091 -0.48345524 0.65702504 0.7741428 -0.15669298 -0.9314084 0.6191852 0.6016345
0.8734059 1.030248 0.18813486 -0.1947462 0.6438964 -0.11265248 0.1234486 0.6201351
0.7272528 0.11861481 0.037221804 -0.19414721 -0.89407086 0.44569805 0.86006737 0.6591616
-0.028090348 -0.31952858 -0.612764 -0.37064594 -0.5528343 -1.1848007 0.6555652 0.020766828
0.6224143 -0.91823196 0.33217865 -0.42209685 0.07888117 -1.0289724 0.69424 0.3363111
0.026526464 -0.3238556 0.29262963 0.058097 0.9684684 -0.6669932 0.5483258 -0.16814883
0.390628 0.7128968 -0.4887472 -0.051719863 0.4513474 0.84023714 0.27602002 1.0530216
-0.37996078 0.24684812 -0.5883387 0.07941362 0.28181607 -0.6359093 0.14523445 0.78607255
-0.26613906 -0.151158 -1.088809 0.37668407 -0.47064868 0.63831514 -0.16085392 -0.76798445
-0.6751956 -0.9841978 -0.12484397 -0.46850052 0.97521615 1.0763742 -0.28016192 0.060436673
-0.41275787 0.8016255 1.1460823 -0.13576533 -0.44180256 0.32902718 0.3920827 -0.44558385
-0.9302386 -0.6065184 -0.048935764 -1.2818125 0.32895148 0.7371576 -0.036506042 -0.278064
0.31063327 1.0014911 -0.11717333 -0.024476502 -0.4837085 -0.34395212 0.36602193 -0.36367568
0.40687314 0.25989234 -0.13621272 0.10985236 0.81937575 0.44746324 0.6122089 -0.7029629
0.94284 -0.13875382 -0.12326908 0.75120425 0.6786888 -0.8290299 -0.7100271 0.4632403
-0.3952129 0.42637858 0.76046824 -0.42434573 -0.36380166 0.878208 0.5427261 -0.48244593
0.8996794 0.62489307 -0.32973883 0.61285883 0.016782943 1.0309322 -0.37103698 -0.66804254
0.051283482 0.008386163 1.0214019 -0.33673397 -0.28520477 -0.15513597 0.30168882 1.1827142
0.49561712 -0.85170937 0.32930243 -0.10614848 -0.32139215 -1.2506022 -0.06622441 0.106998906
1.009108 -1.1618121 -0.23673931 -0.16111362 0.10143773 -0.3550327 -0.35962155 -0.029747318
00000000: 1c2b ccbe 5143 f33d cc0f e43e 0ee6 1d3f
00000010: 71e4 e13e fd4b 1c3d 273f 10bf 8885 23be
00000020: 15d9 d43e ecae 0a3f 250c 87be aea4 a83e
00000030: a420 31be 9387 4b3f e7ed b8bf 4bb8 7abb
00000040: 6098 063e 050b 2b3f a15d 613e 5cc2 983d
00000050: dd67 4cbf a778 383f d9c8 54bd 2007 883e
00000060: 1ab9 883e 78ce 063e 1b62 81bf 5648 88bf
00000070: 305d 803f 2a5a bcbe 1295 7bbf 3575 12bf
00000080: 8b44 263e c01d 0a3f 5cee 07bf 2b12 883f
00000090: 24ac dfbe a0b9 113f 7576 8d3e 8456 0fbd
000000a0: 54fb a93e 0601 d1be ec2a 133f 871a 43be
000000b0: 41aa a4bf 3c8a 53bd 07ea 24bd e687 7cbd
000000c0: c6b2 1bbe 603d 853e c797 18bf ac86 c73d
000000d0: 89c8 933e d54d bcbe 894c 043f e6f3 b03d
000000e0: c3f2 03be 75ac 0ebf 4336 6fbe 5e0b a43e
000000f0: f14e e43e bcd4 7abe 578a 37be d993 6b3f
00000100: bdcd 6dbf 0478 fc3e 0663 91be e814 1bbf
00000110: f8d6 73bf f728 623e 3b12 923e bb22 8ebe
00000120: 1742 dfbd 8e1b 21bf 8b90 1dbf 7d38 86bd
00000130: 6ce8 27bf 9665 4fbe 578f 133e f674 bf3e
00000140: ae01 59be bc46 053f fef4 4bbe 326d 8a3d
00000150: 4604 5f3f 27fb 813e bf18 8c3e a6aa 20bf
00000160: eb13 ba3e 363b 653f 1857 763f 5b62 37bf
00000170: 9c26 9fbd bc95 23be 69b5 5b3f 5257 8cbe
00000180: 01d7 963e 7287 f7be cb32 283f 392e 463f
00000190: 2074 20be c870 6ebf ec82 1e3f b804 1a3f
000001a0: 8797 5f3f 2bdf 833f 6da6 403e 8c6b 47be
000001b0: 65d6 243f 58b6 e6bd 9fd2 fc3d 2dc1 1e3f
000001c0: 3d2d 3a3f 52ec f23d e475 183d 87ce 46be
000001d0: d4e1 64bf 8932 e43e 602d 5c3f d1be 283f
000001e0: bb1d e6bc 4099 a3be 1ade 1cbf 4ec5 bdbe
000001f0: 8c86 0dbf 8da7 97bf 1fd3 273f 321f aa3c
00000200: 8b56 1f3f 4011 6bbf 5213 aa3e 141d d8be
00000210: 738c a13d 5eb5 83bf b6b9 313f f830 ac3e
00000220: 074e d93c 67d0 a5be 8dd3 953e 1ff7 6d3d
00000230: 8ced 773f 11c0 2abf 145f 0c3f 352f 2cbe
00000240: 6500 c83e 6880 363f 133d fabe 35d8 53bd
00000250: 0217 e73e c819 573f 7f52 8d3e 69c9 863f
00000260: 388a c2be c1c5 7c3e 5d9d 16bf 9ca3 a23d
00000270: 324a 903e f4ca 22bf 57b8 143e 0d3c 493f
00000280: 6143 88be 2ac9 1abe 185e 8bbf bcdc c03e
00000290: ddf8 f0be 9f68 233f e4b6 24be a19a 44bf
000002a0: 9ed9 2cbf 63f4 7bbf 32ae ffbd 4ddf efbe
000002b0: c4a7 793f a1c6 893f 6271 8fbe 728c 773d
000002c0: 0055 d3be 5437 4d3f d3b2 923f 1106 0bbe
000002d0: f233 e2be 4076 a83e 10bf c83e 9123 e4be
000002e0: 1e24 6ebf ca44 1bbf de70 48bd 6f12 a4bf
000002f0: 546c a83e 5cb6 3c3f 5c87 15bd 685e 8ebe
00000300: 530b 9f3e dc30 803f 92f8 efbd f282 c8bc
00000310: a4a8 f7be 7e1a b0be 3a67 bb3e b333 babe
00000320: ad51 d03e 9c10 853e 597b 0bbe 46fa e03d
00000330: 9cc2 513f e719 e53e b9b9 1c3f 60f5 33bf
00000340: f65d 713f 7b15 0ebe 8074 fcbd ec4e 403f
00000350: 8dbe 2d3f 4e3b 54bf 56c4 35bf d52d ed3e
00000360: 5859 cabe 4b4e da3e 0cae 423f d843 d9be
00000370: 3644 babe 3dd2 603f 19f0 0a3f 2703 f7be
00000380: 6451 663f fef8 1f3f 87d3 a8be 51e4 1c3f
00000390: 627c 893c 96f5 833f 8ff8 bdbe d604 2bbf
000003a0: a10e 523d 1e66 093c 4cbd 823f 6568 acbe
000003b0: 5c06 92be f7db 1ebe f576 9a3e 2e63 973f
000003c0: 87c1 fd3e a009 5abf 549a a83e 6064 d9bd
000003d0: 838d a4be bc13 a0bf aaa0 87bd 3e22 db3d
000003e0: 732a 813f 42b6 94bf ca6b 72be f8fa 24be
000003f0: 96be cf3d d9c6 b5be 5120 b8be a6b0 f3bc

output.bias f4 [4]
-0.15780611 -0.041050978 0.00934925 0.03980505
00000000: ed97 21be 1225 28bd 992d 193c 9f0a 233d
