checkpoint_critic.pth (torch_old, 602151 bytes, 9 tensors)

normalizer.weight f4 [33]
000000 6a dd 05 3f 95 5f b0 3e ff 04 ee 3e e9 2a 24 3d
       0.52290976 0.34447923 0.46488187 0.040079985
000010 00 b2 c1 3c 49 7a e9 3c 2f af 08 3d da 08 23 3d
       0.023644447 0.028500693 0.033370193 0.039803363
000020 3b 78 ba 3d 0c 18 9f 3d 3a 18 30 3e f5 58 3b 3e
       0.091049634 0.077682585 0.17196742 0.18295653
000030 93 ff 1a 3e 97 f9 68 3f e0 2c f9 3e a0 06 47 3f
       0.15136556 0.91005844 0.4866705 0.77744484
000040 4d 4b 04 3d 64 23 c8 3c 33 66 c8 3c 0c 3e f1 3c
       0.032298375 0.024430938 0.024462795 0.029448532
000050 4c 1a b9 3d 01 a8 96 3d 9d 7c 80 3d 3d c5 07 3f
       0.09038219 0.07356263 0.06273768 0.53035337
000060 62 9c bb 3e df 4f f0 3e db 8d 3b 3f a8 4e 61 3e
       0.36642748 0.46935937 0.7326333 0.22002661
000070 97 4b 2c 3f 66 a0 83 3e 70 96 3b 3d 98 b8 33 3e
       0.6730284 0.25708312 0.045797765 0.17550886
000080 09 e8 9c 3f
       1.2258312

normalizer.bias f4 [33]
000000 05 77 19 be b8 7f 6a bd 91 dc 3d bd 84 99 6f 3c
       -0.14986809 -0.05725071 -0.046352927 0.014624003
000010 42 45 aa bb c6 c6 62 bb c4 44 e0 bb e6 d8 f4 bb
       -0.0051962445 -0.0034603341 -0.006844135 -0.0074721454
000020 6f 2a 94 ba 0f 61 87 bd d1 d0 38 bd c3 50 4b bc
       -0.001130415 -0.06610309 -0.045121018 -0.012409392
000030 c5 35 0b 3c e4 e4 e7 bd b7 44 38 bd b5 be 86 bb
       0.008496706 -0.11322954 -0.044987407 -0.0041120895
000040 a9 61 96 bb bf 92 82 ba dd 37 97 3b 2d 45 3c ba
       -0.0045892787 -0.0009961947 0.0046148137 -0.0007181939
000050 06 66 93 bc 9e bc c5 bb 61 5f e6 3b a6 39 0a 3d
       -0.017992985 -0.006034448 0.007030413 0.033746384
000060 66 54 37 bd 08 b1 50 bd 57 f3 3b bc 50 61 cd be
       -0.044758223 -0.05095008 -0.011471591 -0.40113306
000070 de d1 3b bb ed c7 e3 39 7d 55 46 3e 53 e8 bf be
       -0.0028659026 0.0004344577 0.19368549 -0.37481937
000080 65 ac 84 bc
       -0.016195485

normalizer.running_mean f4 [33]
000000 c1 cf bd 3f d2 1a ff bf bc 20 8a bf e1 87 f6 3e
       1.4829026 -1.993006 -1.079124 0.48150542
000010 71 c8 f7 3d c2 0f 6e bb d4 55 c9 bd c5 39 2c 3d
       0.12098778 -0.003632531 -0.098308235 0.04204728
000020 79 3a 66 bd 07 f9 86 3c 07 76 e2 3c 5a 75 2e 3c
       -0.056208108 0.016476167 0.02764417 0.010648096
000030 7c 28 71 bc 7b aa d2 3f 37 41 46 c0 47 a7 bb bf
       -0.014719125 1.6458277 -3.0977304 -1.4660424
000040 0f 2d a4 3c 61 91 09 bc 51 d2 87 3a ea 51 47 bc
       0.020041017 -0.008396477 0.0010362362 -0.012165526
000050 a1 26 42 3f d6 c6 f2 bb 3a d9 79 3e 15 3d 30 3d
       0.75840193 -0.007408957 0.24399272 0.043027002
000060 85 53 f8 3d 49 84 69 bd 55 a6 ea bd fc ff 7f bf
       0.12125305 -0.057010923 -0.114575066 -0.99999976
000070 6f b6 25 bd 00 00 00 00 fc ff 7f 3f 00 00 00 00
       -0.040457185 0.0 0.99999976 0.0
000080 76 c7 ff bc
       -0.03122304

normalizer.running_var f4 [33]
000000 24 52 7a 40 90 cc b1 3f 4d b0 5c 40 86 46 b0 3e
       3.9112635 1.3890553 3.4482605 0.34428805
000010 21 7a be 3d 0b b7 32 3e 75 b1 07 3e 05 1e 51 3f
       0.09300638 0.17452638 0.13251288 0.8168643
000020 f6 f9 d9 3d 6d c1 17 3e a3 29 38 40 2b 6c 48 40
       0.106433794 0.1481988 2.8775413 3.131602
000030 8f 71 16 40 5d 97 86 41 1c c5 a1 40 82 b0 9c 41
       2.350681 16.823908 5.055311 19.586185
000040 40 5d 6d 3e 4d a2 86 3e 55 fe 4d 3e f2 15 9b 3e
       0.23180103 0.262957 0.20116551 0.3029018
000050 8a 14 2c 40 cb fa 42 3f e3 af ec 3f 49 8f 0c 41
       2.6887536 0.7616393 1.8491176 8.784982
000060 fd e7 05 41 9d 69 26 41 7f 78 00 42 04 00 00 00
       8.369138 10.4007845 32.117672 6e-45
000070 d7 50 ff 41 04 00 00 00 04 00 00 00 04 00 00 00
       31.914473 6e-45 6e-45 6e-45
000080 3a d3 a5 3e
       0.32387716

layers.0.weight f4 [512, 33]
000000 50 2e 9d bd 5e 55 5b 3d 5d b3 28 3e b3 d7 16 3c
       -0.07674849 0.05354821 0.16474672 0.0092067
000010 6e 6e e0 bc 62 25 7d 3d 52 8c eb 3d f8 6d 25 bd
       -0.027396407 0.06180323 0.11501373 -0.040388077
000020 a1 17 5b be 79 69 ba 3b 69 7f ac bc 4c 47 97 3e
       -0.21395732 0.005688843 -0.021056848 0.29546583
000030 50 2b f9 3d 3d c1 c4 3d 99 4b c8 3d 3c a7 48 bb
       0.12166464 0.0960717 0.09780044 -0.0030617258
000040 d7 cf 03 be 3d 16 56 bd 1e 15 18 3e 44 61 d1 bd
       -0.12872253 -0.0522673 0.14851806 -0.1022363
000050 6f 56 92 be 5a 8a 2a 3e 3d 76 83 3d fd 35 3a 3e
       -0.2858157 0.1665434 0.064190365 0.18184657
000060 0b c0 ca bd f7 8c 4f 3a f3 0c 88 3d b2 7d 1c 3d
       -0.098999105 0.0007917429 0.06643095 0.03820581
000070 a7 6c 9b bd 78 6a be bc a2 5f 41 bc 3f 95 83 3d
       -0.07589083 -0.023244128 -0.011802586 0.06424951
000080 fa e4 f2 3c 4f 28 53 be 4d 5d 4d 3d 3b 21 ee 3d
       0.0296502 -0.20620845 0.050137807 0.11627432
000090 31 ff ca 3c 4e c9 fd bd 38 e1 20 bd 29 ab 1b bd
       0.024779888 -0.123919114 -0.039277285 -0.038005028
0000a0 12 57 09 3e d8 d0 8c 3b 57 b6 30 3d 7d 8d 28 3c
       0.13412121 0.004297357 0.043142643 0.01028764
0000b0 6e a8 93 3d c2 11 83 3d e4 ea 75 3e 6f 75 ac bd
       0.0720986 0.063998714 0.24015385 -0.08420836
0000c0 af d3 28 bd 26 73 9d bd 22 44 5b 3d 00 7f b1 bd
       -0.041217502 -0.076879784 0.053531773 -0.086668015
0000d0 6c 9e d9 bd c7 2f 2a be ab 5c 3a 3d 8e 06 bb bd
       -0.1062592 -0.16619788 0.04549853 -0.091321096
0000e0 71 db 44 3e fb 4f 00 be 1d c9 a5 bd 93 fc 65 be
       0.19224335 -0.1253051 -0.08095 -0.2245963
0000f0 45 e3 39 3d 59 23 1a 3e ab bb 64 bc 34 b8 c2 bd
       0.045382757 0.15052547 -0.013960759 -0.0950779
000100 bf 31 be 3c 12 67 b0 bd 69 1f a4 3d 6d e6 f9 bd
       0.02321708 -0.08613409 0.080138035 -0.12202153
000110 72 40 71 bb f5 7b 80 3d 29 7d 8c 3d 3c e5 a4 3e
       -0.0036812094 0.06273643 0.0685981 0.32206142
000120 46 63 01 be 1f 95 2b bd 9a c7 46 be e9 3f 71 3d
       -0.12635526 -0.04189026 -0.1941208 0.05889884
000130 cc dc a6 bc 9a 52 9a bd f6 0b 74 3d 93 16 e2 3d
       -0.020368956 -0.07535286 0.05958172 0.11039462
000140 49 a4 6a 3e a2 11 ca 3d 1d b9 21 3e e9 f5 24 3e
       0.22914232 0.098666444 0.15793271 0.16109432
000150 28 b2 b9 3c b3 4d 83 bd 53 c9 b3 3b bd 4b 86 3d
       0.02266796 -0.06411304 0.005486646 0.06557415
000160 2c 43 8c 3b 07 05 01 3e 74 de 7e 3e c7 6f 9f bb
       0.0042804684 0.12599574 0.24889547 -0.00486562
000170 7a 17 6b 3b 9d 22 a0 3d f5 15 08 be 44 67 d1 bb
       0.0035872147 0.07819102 -0.13289626 -0.006390484
000180 f4 e5 05 be e3 ed 8e 3d 6d b8 c8 3d 79 17 07 3e
       -0.13076001 0.06978967 0.098008014 0.13192548
000190 5f 67 c1 3d 0f 48 b9 3c c2 21 0f be 4c 58 46 bd
       0.094435446 0.022617368 -0.13977721 -0.04842405
0001a0 ab e9 e3 bd df e0 20 3e f3 e0 50 3d 5d 62 83 be
       -0.11128553 0.15710782 0.05099578 -0.25660983
0001b0 d1 1b 8b 3e cb 28 30 be 5b 48 24 3e 75 23 4d be
       0.2716966 -0.17203061 0.16043226 -0.20033057
0001c0 00 e3 2f be ba b9 5f 3d d4 6a e0 3d 15 bd e3 3e
       -0.17176437 0.054620482 0.10957876 0.44480196
0001d0 53 37 5d be 8d 0d 2d bd 06 09 87 3d 53 af 11 bd
       -0.21603136 -0.04224925 0.06593518 -0.035567593
0001e0 ef 5d 79 3e 32 1a c5 3e b2 5b 6e be e2 ae c4 bd
       0.24352239 0.38496548 -0.23277166 -0.09603669
0001f0 fd f8 3a 3e cc 9f 2f 3d 2c cc 2b 3e 50 42 69 bd
       0.18259044 0.042877004 0.16777104 -0.056948006
000200 92 7c f7 bd c5 c0 40 be 8b 86 82 3e 8b eb a3 3c
       -0.12084307 -0.18823536 0.25493273 0.020009777
000210 6a 39 1b be 80 65 ea 3d 01 4b d4 bc 3f 4a c1 3d
       -0.1515862 0.11445141 -0.02591467 0.094379894
000220 47 60 53 bd d5 88 2e 3e 62 3b a5 3d c9 cd 36 3e
       -0.05160549 0.17044385 0.08067967 0.17851938
000230 fa 07 8b bd c6 31 86 bc e2 4d 9b bd 21 44 da bd
       -0.06788631 -0.016381156 -0.07583214 -0.10657526
000240 1f 1d 0c be 08 61 d5 bd 73 5a bc 3d 53 b1 9e 3c
       -0.13682984 -0.10418898 0.09196939 0.019371664
000250 fd 11 7c 3e eb 8c 18 3d 11 ae 84 3c 56 90 28 3e
       0.24616237 0.037243765 0.016196283 0.1646131
000260 84 5f ca 3e 14 ae 84 3d ac c8 82 be 1b 96 be bd
       0.39525998 0.06478515 -0.25543725 -0.09305974
000270 e9 0e 79 3d ae be f5 3d 1a 7a 22 3e 74 71 22 3e
       0.060805235 0.1199926 0.1586689 0.15863591
000280 68 7c 17 be 83 c1 cd bd 34 ee 13 be 42 e6 01 3e
       -0.14793551 -0.10046675 -0.14446336 0.12685493
000290 a3 dc ec 3d e3 15 69 bb 60 ff 94 3c eb 03 d1 bd
       0.115655206 -0.0035566024 0.018188179 -0.102058254
0002a0 c2 40 d3 bd 35 43 4b 3e d3 5a 3d 3d 1a 31 6f 3d
       -0.10315086 0.19849856 0.046229195 0.058396436
0002b0 5b e2 55 3b ab 75 e1 3d fc fa 32 bd e8 81 0d bd
       0.003263614 0.110087715 -0.04369639 -0.034547716
0002c0 56 c4 5d 3d 01 d0 52 3d 2f f4 93 3a 9a ed 9d bc
       0.05414232 0.0514679 0.0011287982 -0.019278336
0002d0 9c b6 86 3d 7b 85 20 be 41 34 8f bc fb ec 55 3e
       0.06577799 -0.15675919 -0.017480971 0.20891182
0002e0 ba ba 99 bd 37 44 65 3d e7 48 7d 3c f4 4d 48 bd
       -0.075063184 0.055973258 0.015459276 -0.048902467
0002f0 92 a2 51 3d 88 6c 45 bc 09 50 ac 3c c4 05 88 3d
       0.05118043 -0.012049802 0.021034257 0.06641725
000300 53 9e 30 3e d0 51 1d 3e 42 f5 7a 3c 23 d5 0e be
       0.17247896 0.1536324 0.015317263 -0.13948493
000310 b9 58 0c 3e 5e 51 8f 3e 67 a7 b1 3d 9e a7 de bd
       0.1370572 0.27991766 0.086745076 -0.10871814
000320 bb a1 6d 3c d6 0b 95 bd 92 e3 6a bc b6 05 e2 bc
       0.014503892 -0.07277648 -0.014336484 -0.027590614
000330 1a 2c 9d 3c 4b 1f bb 3d 63 54 7b bd 06 3c c9 3d
       0.019186068 0.09136828 -0.061359774 0.09825902
000340 50 47 25 3d 2f e9 29 be c5 82 f0 3c ee 9c e2 bc
       0.040351212 -0.16592859 0.02935923 -0.02766272
000350 f9 e6 58 3c 1f ad 4e be 96 9e ad bd cb cb fa 3d
       0.013238662 -0.20183228 -0.084775135 0.12245902
000360 b5 0f 3a bb 96 3a 31 3d e3 cc 91 bd 45 bb 8f 3c
       -0.002839071 0.043268763 -0.07119157 0.017545352
000370 d7 19 0e bd 95 b7 00 bc 0a bf 45 3e e2 53 00 be
       -0.03469261 -0.007856269 0.19311157 -0.12531999
000380 cb e0 83 be 56 87 cd 3d ae 7c 72 bc c1 97 d9 bd
       -0.2575744 0.10035579 -0.014800234 -0.10624648
000390 7d 91 08 be a7 9b 88 3d da 55 e1 3d 0c bf fe 3c
       -0.1333675 0.06670313 0.11002703 0.031096958
0003a0 b0 7f f2 3d 69 75 8b 3d fd 8c 82 3a 2e cc 06 be
       0.11840761 0.068095036 0.0009960231 -0.13163826
0003b0 f5 af 4d 3e 1c 77 be bd 43 cc ac 3d 17 d0 7a bd
       0.20086654 -0.09300062 0.08437397 -0.061233606
0003c0 ad 54 0e 3e 4e 8e f2 3d b3 a4 5a bd 59 7c b3 bd
       0.13899489 0.11843549 -0.053379726 -0.08763952
0003d0 ee 6b e0 3a 7c 9b 09 be ea 57 1c 3e 51 c0 1f 3d
       0.0017122009 -0.13438219 0.15267912 0.039001767
0003e0 63 12 62 3e 3e 7a c4 bd 84 24 67 be e3 78 b2 3d
       0.22077326 -0.09593628 -0.22572523 0.087144636
0003f0 85 cc 3c bd df c2 61 3c 7d 1b 43 3c ff 46 0b be
       -0.046093483 0.013779371 0.011908409 -0.13601302

layers.0.bias f4 [512]
000000 e4 bd 0e be 7a c0 e9 bd a3 e3 76 be 1a 03 93 be
       -0.13939625 -0.11413665 -0.24110274 -0.28713304
000010 03 42 21 be fd 15 43 be ef f9 35 be 0e 42 08 be
       -0.15747838 -0.19051357 -0.17771123 -0.13306448
000020 aa aa 1a be 95 06 36 be fa 49 39 be 6c d0 23 be
       -0.15104166 -0.17775948 -0.18094626 -0.15997475
000030 b1 88 12 be 58 a3 57 bd 33 f6 ec bd 61 b5 55 be
       -0.14309956 -0.05264601 -0.11570396 -0.20869972
000040 02 e3 c7 bd 18 ba 46 be c6 96 76 bd db 2f 04 be
       -0.09760095 -0.19406927 -0.060202383 -0.1290888
000050 c7 60 ae bd a2 82 3c be a1 4b 95 be b6 bf 48 bd
       -0.085145526 -0.18409207 -0.29159263 -0.049010955
000060 5f f0 9f bd 5e 15 48 be ec dd 0d be 47 77 64 bd
       -0.07809519 -0.19539401 -0.13854188 -0.055777814
000070 df 06 d6 bd ca e3 1e be ca 53 41 be f7 3c b1 bd
       -0.10450529 -0.15516582 -0.18879619 -0.08654206
000080 73 92 19 be 16 b6 7e be 60 4f 6d be a5 78 5d be
       -0.14997272 -0.24874148 -0.2317481 -0.21628053
000090 94 ee 0d be e7 c0 61 be 5e 2b b6 bd 24 87 8f bd
       -0.13860542 -0.22046243 -0.088949904 -0.07008198
0000a0 66 86 0a 3d 3d 5b 30 be d1 44 32 be fe c2 b3 bd
       0.03381958 -0.17222305 -0.17409064 -0.08777426
0000b0 ee 09 b1 be f8 3f a0 be 28 6e 25 be 58 ac 5d bd
       -0.34577888 -0.31298804 -0.16155303 -0.054119438
0000c0 52 82 1f be e4 01 93 be 01 8b ca bd 37 1c 48 be
       -0.15577057 -0.2871238 -0.09889794 -0.19542013
0000d0 9c 26 1c bb 09 d8 8b bd 7c 2f 3c ba 81 b9 6f be
       -0.0023826724 -0.06828315 -0.00071787066 -0.23410608
0000e0 08 b7 1b be cf be f7 bd d7 e0 91 be bd 53 f0 bd
       -0.1520654 -0.12096941 -0.28491852 -0.11734722
0000f0 8c 9e 34 be fc 39 05 be 1e bb 3e be 9a 72 66 be
       -0.17638606 -0.130104 -0.18626067 -0.22504655
000100 b3 c9 44 be 5d f8 13 be d0 79 bf bd 42 d8 cb bd
       -0.19217567 -0.14450212 -0.09349406 -0.09953357
000110 bf 01 09 be 43 23 fd bc fe f9 4f be 90 81 fc 3c
       -0.13379572 -0.030900603 -0.20310208 0.030823499
000120 49 b0 da bd 1d b7 07 be 20 26 59 be 7a 9d 18 3d
       -0.10678155 -0.13253446 -0.2120595 0.037259556
000130 dd 29 0e be b9 7e 2a be 63 0c 86 be 5f 61 24 3d
       -0.13883157 -0.16649903 -0.26181325 0.040131923
000140 38 eb 88 be 10 89 5d bd 18 03 85 bd 96 11 0a be
       -0.26741958 -0.05408579 -0.06494731 -0.13483271
000150 b3 bd e3 bd d5 63 e9 bd a3 96 9d bd 91 64 48 be
       -0.11120167 -0.113959946 -0.07694747 -0.19569613
000160 c5 a5 a4 be f5 99 51 be d9 b4 2f be 9b a3 37 be
       -0.32157722 -0.20468886 -0.17158832 -0.17933504
000170 30 50 c5 bd f1 6c 22 be 70 f5 82 bc 09 5e 4c be
       -0.09634435 -0.1586187 -0.015986174 -0.19957747
000180 7e 28 ee bd 6b ee f6 bc f8 14 0f be d3 be fe bd
       -0.11628817 -0.030142983 -0.13972843 -0.124387406
000190 51 c4 44 be 77 ee b1 bd 19 54 69 be 20 12 8c bb
       -0.19215514 -0.08688062 -0.22785987 -0.0042746216
0001a0 2e f9 99 bd c2 79 99 be b5 2e 6c 3d 40 01 4a 3d
       -0.075182304 -0.29975706 0.05766173 0.0493176
0001b0 8e d3 4a be 6e f3 e1 bd 9f 8b 04 be e4 e7 84 be
       -0.19807264 -0.11032759 -0.12943886 -0.25958169
0001c0 b0 61 2f 3b 12 55 86 be 5f 82 48 be 0f ae df 3c
       0.0026761107 -0.26236778 -0.19580983 0.027304677
0001d0 f0 ae 01 be ed af 83 bd ed 37 9e bd d6 02 12 be
       -0.1266439 -0.064300396 -0.07725511 -0.14258894
0001e0 21 79 44 be 2e cb 33 be e5 d0 90 be 2b fc 8c be
       -0.19186832 -0.17557976 -0.28284374 -0.2753614
0001f0 6f 52 83 be 6a 49 94 bd 4d 16 a7 bd 36 95 62 be
       -0.2564883 -0.07240565 -0.081585504 -0.22127232
000200 e3 e6 02 be e4 cf 99 be ff e7 1f be d3 2d 84 be
       -0.12783389 -0.3004142 -0.15615843 -0.2581621
000210 d1 8d bc bd 1e cc 12 bd f4 36 3c be 9b c9 3b be
       -0.09206737 -0.035839193 -0.18380338 -0.18338625
000220 ca e0 d7 ba d7 c7 db bd 34 30 dc bd 3f 21 f3 bd
       -0.0016470191 -0.10731476 -0.107513815 -0.118715756
000230 85 d7 35 be 18 1d 97 bd b8 46 8a bd b2 94 50 be
       -0.17757995 -0.07378596 -0.0675177 -0.20369223
000240 28 e5 48 be d9 3e 88 be 1a 29 13 be 20 93 ad bd
       -0.19618666 -0.2661045 -0.14371148 -0.084753275
000250 26 93 19 be 7e 91 8a be bb 8c 57 bb b3 c7 39 be
       -0.14997539 -0.27064127 -0.0032890278 -0.18142585
000260 4c 84 83 be 92 65 74 be 56 52 8b 3c ed 5c 06 be
       -0.25686872 -0.23866871 0.017007034 -0.13121386
000270 b7 28 9f be fc 6a 62 be 71 84 4a be a0 7c bd bd
       -0.3108575 -0.22111124 -0.19777085 -0.09252286
000280 5b d2 5b be cd 88 57 be 56 78 f5 bc 21 7f 31 be
       -0.21466963 -0.21048279 -0.029964607 -0.17333652
000290 71 c6 e2 bd 5d 0f 84 be 9d d7 63 bc d9 05 24 be
       -0.11073006 -0.2579297 -0.013906387 -0.16017856
0002a0 10 55 df bd 37 97 55 be 72 eb 8b be 6c d4 33 bc
       -0.10904896 -0.20858465 -0.27328068 -0.010975938
0002b0 07 c7 3c bd 7b b4 f8 bc 55 ba 02 be 84 b5 db bc
       -0.046088245 -0.030359497 -0.12766393 -0.026819952
0002c0 ef 01 a4 bc f1 b0 b6 bd 1a 5d 95 bb 81 7a dd bd
       -0.020020453 -0.08920468 -0.0045582177 -0.108143814
0002d0 3b 87 a9 bd 9c ed f5 bd 9a 78 d5 bd ca a0 a8 be
       -0.08277746 -0.12008211 -0.104233935 -0.32935172
0002e0 2a fc 8e be 01 9e 28 be 4d 50 c0 bd 00 86 c2 bc
       -0.2792676 -0.16466524 -0.09390316 -0.023745537
0002f0 43 20 3c be f5 0b d6 bd dd 0f 65 be 32 9e 8a be
       -0.18371682 -0.104514994 -0.22369333 -0.27073818
000300 67 c9 18 be b2 ea 80 be 0c 51 ad bd c7 81 10 be
       -0.14920579 -0.25179058 -0.08462724 -0.14112006
000310 19 97 6a be 14 bf 31 be af 10 3e be 7d 07 40 be
       -0.22909202 -0.17358047 -0.18561052 -0.18752857
000320 60 2a 90 be 87 d8 c2 bd 1e 57 bd 3b 31 b5 80 be
       -0.2815733 -0.095139556 0.0057782074 -0.25138238
000330 f0 e3 11 be eb a0 ef bd 26 14 a3 bd 0d d0 26 be
       -0.14247108 -0.117006145 -0.079628274 -0.16290303
000340 26 2e ba bd 59 ee 8c be f0 5b 99 be 50 16 7b 39
       -0.09090833 -0.27525595 -0.29952955 0.00023945537
000350 ab bd 83 bd 6c 8d 3c be e1 80 a1 be 10 a3 44 be
       -0.06432661 -0.18413323 -0.3154364 -0.19202828
000360 d8 48 90 3c 20 62 ab bd 84 2f 91 bd 20 b2 9d be
       0.01761286 -0.08368325 -0.07089141 -0.3079996
000370 2b fe 00 be 7f 3f f7 bd bb 62 11 be 79 e2 33 bb
       -0.12596957 -0.12072658 -0.14197819 -0.002744822
000380 f8 9e 12 be 73 8d 59 bc f9 77 a2 be 92 cf c6 be
       -0.14318454 -0.013278353 -0.31732157 -0.3883024
000390 24 af b1 bd 5e 94 51 be de da 49 be 47 8d 3e be
       -0.086759835 -0.20466754 -0.19712397 -0.1860858
0003a0 69 89 21 be 92 d2 e1 bd e1 8f bd bb ca 8b 36 be
       -0.15775074 -0.11026491 -0.005784974 -0.17826763
0003b0 d3 a9 c3 bd 0d 5f 82 3c 58 08 3e 3c bf 49 be bd
       -0.09553876 0.015914464 0.011598669 -0.0929141
0003c0 c1 66 ff bd 85 62 c7 bd f4 c7 1e be d7 c2 ae be
       -0.124707706 -0.09735588 -0.15505964 -0.34133026
0003d0 20 a8 5f be a0 f4 a5 bd a7 10 73 be aa dd 04 bd
       -0.21841478 -0.08103299 -0.23736821 -0.032437958
0003e0 93 37 59 bc 71 49 e9 bd 47 e8 9e bd 81 a7 d9 bd
       -0.013257879 -0.11390961 -0.07759147 -0.10627652
0003f0 b1 62 cb bd 4b 9f 9d be ed 37 0e be 4c e6 86 3d
       -0.09930933 -0.30785593 -0.13888521 0.065868944

layers.1.weight f4 [256, 516]
000000 ce 0c 7b bb d0 ac fb be 48 b1 14 be 32 7c 57 be
       -0.0038307193 -0.49155283 -0.14520752 -0.2104347
000010 6d 9e 18 be d7 ef 09 3e 9b c6 cd bd 7a c0 8c be
       -0.14904185 0.13470398 -0.100476466 -0.27490598
000020 91 20 5b be a8 0c 9f 3d 8d 8b 79 be cb a1 32 3e
       -0.21399142 0.07766086 -0.2436964 0.17444532
000030 33 e1 11 3e a1 aa f7 3d e6 8d a6 be 87 0c 77 be
       0.14246063 0.12093092 -0.32530135 -0.24125873
000040 6a b7 12 3c 7c 5d 54 be ad 04 02 be 76 da 60 3e
       0.008954862 -0.20738786 -0.12697096 0.21958336
000050 60 d6 94 3c 33 ef b4 3b 84 2c 79 3d 21 e6 bd 3b
       0.018168628 0.005521679 0.06083347 0.005795256
000060 99 b4 21 bd 8c 0e 03 bd f2 27 a7 be 5c ce fe 3d
       -0.039478872 -0.031996295 -0.32647663 0.12441704
000070 8a 32 8c be f0 b3 b5 bd a6 3d 5d be ec d5 f4 bc
       -0.27382308 -0.08872211 -0.21605548 -0.029887162
000080 7e f9 00 3e 9b 83 ce bd 3c ee d1 be 96 65 03 3e
       0.12595174 -0.100836955 -0.4100207 0.1283172
000090 ed 62 6d bd 5a 5f 31 3e ba 86 a9 3d 3c 36 0c 3e
       -0.05795567 0.1732153 0.0827765 0.13692564
0000a0 fb 77 aa bd 47 5c a5 bd dc ed c5 be 2c 8e 0f 3e
       -0.08323666 -0.08074241 -0.38658035 0.14019078
0000b0 92 81 70 3d 9d 05 1e 3e a1 2f c0 3c 70 7e 44 3e
       0.058717318 0.15431829 0.023460211 0.19188857
0000c0 01 ae 97 be 1c 46 00 be d2 32 37 3e d5 af 75 3e
       -0.29624942 -0.12526745 0.1789048 0.23992856
0000d0 30 58 24 3d 6f bc 8f bd 0a 62 1f be 3e f9 2e bd
       0.040123165 -0.07018363 -0.15564743 -0.042718165
0000e0 a4 e3 92 3d 72 74 c8 b9 b0 38 8d bd e7 77 08 3e
       0.07172325 -0.0003823373 -0.06895578 0.13326989
0000f0 67 84 49 be 2e 8a 34 3e dc 3a 47 be cc 5b 8b bb
       -0.19679414 0.17630836 -0.19456047 -0.0042528864
000100 1e 92 0f be 69 e2 d2 bd 73 a2 b2 be e7 cf ff 3d
       -0.14020583 -0.102970906 -0.34889564 0.12490826
000110 0b 09 fe 3d ca 59 85 bd 02 7f 2c 3d c6 ad 3e 3d
       0.124040686 -0.065112665 0.04211331 0.046552442
000120 18 d0 a0 3e 6e fd 3f be 16 a5 1e be 04 20 d0 bd
       0.31408763 -0.1874902 -0.15492663 -0.101623565
000130 3a 3f 9f bd e6 c1 1b be e6 1d c9 3e b9 29 db bd
       -0.077757314 -0.15210685 0.39280623 -0.10701317
000140 b8 41 8d 3e ec 4b 35 3e 87 94 99 bd be 49 3d 3e
       0.27589202 0.17704743 -0.074990325 0.18485162
000150 f3 30 eb 3d 63 c6 a5 3d 8a 42 fc 3d 9d 27 2f 3d
       0.11483946 0.0809448 0.12317379 0.042762388
000160 71 6d 06 bc 62 69 09 bd 6b 4b 7f 3c 62 b6 ac bd
       -0.008204804 -0.033547767 0.015581946 -0.08433224
000170 04 e2 ea be 59 e7 95 be 2f c5 b6 3d 46 94 26 3e
       -0.4587556 -0.29278067 0.089243285 0.162675
000180 3a 8f 18 bd af a5 01 be 7d 12 34 bd 36 b9 5a be
       -0.037245966 -0.1266086 -0.043962944 -0.21359715
000190 23 78 f1 3d 66 99 45 be 4b fb 87 3d dc eb 21 3d
       0.117904924 -0.19296798 0.06639727 0.039531574
0001a0 f4 cb a8 bc cb 69 19 3e ef a5 4b bd 8a dd 4b 3e
       -0.020605065 0.14981763 -0.049718793 0.19908729
0001b0 a4 b4 90 3d 53 d7 1d be 8a cd db bd b2 51 ab 3d
       0.070657045 -0.15414171 -0.10732563 0.083651915
0001c0 76 ac 26 bd a3 a5 5d 3e 0b 71 9e be 0b 75 c8 bd
       -0.040691815 0.21645217 -0.3094562 -0.09787949
0001d0 e7 ce ce bd 7a c8 50 3d 35 9f d7 bd bb 1f d1 bd
       -0.10098057 0.05097244 -0.10528413 -0.1021113
0001e0 d7 53 b0 bc eb 35 fe be 79 92 a9 be 68 8c d4 bc
       -0.021524353 -0.4965051 -0.33119562 -0.025945857
0001f0 ce 75 d0 bd d0 ac 81 3e b7 96 22 be 44 43 ba bd
       -0.101787195 0.25327158 -0.15877806 -0.09094861
000200 7a 2a 33 3c 43 c0 a5 3d 87 5b d1 3d 5d 31 56 3e
       0.01093542 0.08093312 0.102225356 0.20917268
000210 7e c1 41 bd 5e 5b 78 bc bb 9f 5d 3c 60 a9 e8 bd
       -0.04730367 -0.015158502 0.013526852 -0.11360431
000220 a3 af 02 3d e0 f7 00 bf de 28 df 3e 24 b9 20 bb
       0.03190578 -0.5037823 0.43585867 -0.0024524415
000230 22 65 0d 3e e5 ef a7 be e1 f8 3a bd e2 64 d5 be
       0.1380811 -0.32800213 -0.045647506 -0.4167853
000240 53 b2 54 3d ba a5 7b be f8 ed a1 3c 4b 3d a6 bc
       0.051927876 -0.24574938 0.019766793 -0.020292899
000250 65 9b 26 be eb 81 10 3e 03 ff 0a be da 4d 88 be
       -0.16270216 0.1411206 -0.13573842 -0.26621896
000260 be 1e 6d bc 67 f7 8b 3e 07 39 5d 3c 27 e0 64 bd
       -0.014472662 0.2733719 0.013502366 -0.05587783
000270 41 79 5b 3e f9 79 de 3c 38 01 37 3e 9b de 48 3e
       0.21432973 0.02715777 0.17871559 0.19616167
000280 97 45 47 3d ac 8c a2 bc 49 97 9e 3d b4 ed 23 be
       0.04865035 -0.019842468 0.07743699 -0.16008645
000290 a5 f8 19 be a6 4f e4 be 5a 85 89 3e a5 e0 5c 3e
       -0.15036257 -0.44592017 0.26859552 0.2157007
0002a0 84 bd 6b be b2 b4 e1 bd 0c ef 20 3e 0c 82 1d be
       -0.23021513 -0.11020793 0.15716189 -0.1538164
0002b0 68 16 8f be 20 be bb 3d a2 ac 48 bd 00 b5 80 bd
       -0.27946782 0.09167123 -0.04899276 -0.06284523
0002c0 ca 4e 36 3d 3d ed 6e 3e 17 88 44 3d f9 e0 3a bd
       0.044508733 0.23332687 0.047981348 -0.045624707
0002d0 c0 a4 20 bd ab 36 dc 3e 48 7c 85 be 28 90 c4 bd
       -0.039219618 0.43010458 -0.26071382 -0.09597808
0002e0 45 2e 53 3e 02 e7 65 3e 2c 27 d4 3d 8f 87 d0 3d
       0.20623119 0.22451404 0.10359034 0.10182106
0002f0 a2 7a cf 3c e9 ec b2 3c 7d d2 40 bc 0a f6 a2 3d
       0.02532703 0.021841483 -0.011768934 0.079570845
000300 5d 43 0d 3e 5a 36 0c be ba 89 b1 be 15 75 0a 3d
       0.13795228 -0.13692608 -0.3467539 0.033803064
000310 d2 ed 87 3b 59 10 6d bd a7 83 e3 be b7 b3 38 3c
       0.0041482234 -0.05787692 -0.4443638 0.011273316
000320 5f 67 4a bb 69 3d a8 bd 96 9c b5 3c 0d 11 f4 3d
       -0.0030884368 -0.08214838 0.022169393 0.11917315
000330 72 37 2b be 24 89 fd bd d0 29 1f be db fb d5 3c
       -0.1672037 -0.12379673 -0.15543294 0.02612107
000340 f6 7e 58 bd c0 22 41 bd a2 92 ba 3c 92 e8 cc bd
       -0.052855454 -0.04715228 0.022774998 -0.10005297
000350 03 62 3b be 8e 12 bd bc 7b 83 5e bd 52 59 38 bc
       -0.18299107 -0.023080137 -0.05432461 -0.011251764
000360 20 a1 cb bd 86 29 92 3e 54 6d a9 3e 59 38 50 3d
       -0.099428415 0.28547305 0.33091223 0.050834987
000370 25 12 ab bc de 52 87 be 4c 25 92 be 6c e5 85 3e
       -0.020882675 -0.2643041 -0.2854408 0.26151597
000380 79 53 11 be 7a 1e de be 65 37 1f 3e 9d 4f 65 be
       -0.14191999 -0.43382627 0.15548475 -0.22393651
000390 f4 40 52 bd 09 99 59 bd e9 e5 95 3d 11 86 53 be
       -0.051331475 -0.05312446 0.073192425 -0.20656611
0003a0 95 ae 17 be 7e 6c 0b 3e 56 bb e3 be 80 a6 ac 3e
       -0.14812692 0.13615605 -0.44478863 0.3372078
0003b0 a2 38 19 3e 1a 9e 02 be 1c 7d 4a bd 63 a1 d6 bd
       0.1496301 -0.12755623 -0.04943572 -0.10480001
0003c0 e6 9c 5b 3e 31 62 10 3e 20 bc 77 bc 52 4e 2b 3d
       0.21446571 0.14099957 -0.015120536 0.04182274
0003d0 5b 2a 8e 3d 1a 70 33 3e e2 e0 02 3e ed 36 c7 3d
       0.069416724 0.17523232 0.12781098 0.09727273
0003e0 c9 df 2c be dd 71 af be 63 86 01 3e d0 79 68 be
       -0.16882242 -0.34266558 0.1264892 -0.22702718
0003f0 80 22 f9 3d 89 ef 18 be 43 b1 81 3d b5 47 73 bd
       0.121647835 -0.14935125 0.06332638 -0.059394557

layers.1.bias f4 [256]
000000 39 56 2c 3d 47 9a 06 3e 53 1a 91 bd 99 62 fa 3d
       0.042074416 0.1314479 -0.07085099 0.12225837
000010 58 ef 68 3c 05 69 3c bd 8b 7c 36 3e f0 0b 21 3e
       0.01421722 -0.045998592 0.17820947 0.1572721
000020 02 cf 30 bc 5e 70 d5 3d 84 c5 55 3d 1c d6 d4 bd
       -0.010791542 0.10421823 0.05219032 -0.103924006
000030 87 1a b4 3d 26 98 e5 3d 25 e4 42 3e d9 6a 38 3e
       0.08794122 0.11210661 0.19032343 0.18009509
000040 fc 75 bb 3d aa c1 7f bd ab b8 de 3d 78 9a 08 3e
       0.09153363 -0.06244055 0.10875066 0.13340175
000050 52 23 02 3e 83 5e a3 bd 7e 55 98 bd 1b 7d 17 3e
       0.12708786 -0.07977011 -0.07438181 0.14793818
000060 1a 56 a8 bd 67 69 8d bd b7 47 6c bd c1 df 25 3e
       -0.082195476 -0.069048695 -0.05768558 0.16198637
000070 cd 22 9e bd e0 8e dc 3d 3b 62 03 3e 50 31 10 3e
       -0.077214815 0.10769439 0.1283044 0.14081311
000080 3c 20 43 3c 0f ca f0 bc cb a6 01 be 28 d3 c2 bd
       0.011909541 -0.029393224 -0.12661283 -0.09512931
000090 35 61 16 3e e2 d0 47 bd b8 d0 0e 3e 6e f2 42 3e
       0.14685519 -0.04878319 0.13946807 0.19037792
0000a0 c0 3c 32 bc 6b 6a 36 bc 29 51 23 3e b4 d1 2f bc
       -0.010878742 -0.01113377 0.15948929 -0.010731149
0000b0 3b 17 a7 3b 5c f1 8d 3c 12 f8 3f bd 4a 36 fc 3d
       0.005099205 0.017327003 -0.046867438 0.12315042
0000c0 86 30 a4 bd e7 8e 40 3d 2a 4d 41 3e 64 a1 5d bd
       -0.080170676 0.047011282 0.18877092 -0.054108992
0000d0 d8 08 24 3e ea 06 a3 bd c4 2a 02 3e 2a d6 a1 bd
       0.16018999 -0.07960303 0.12711626 -0.07902177
0000e0 22 8c 49 3e d0 90 89 bd 96 30 28 3e 83 cf 2b 3e
       0.19682363 -0.06717074 0.16424784 0.16778378
0000f0 14 aa d3 bd 49 d8 db bd aa 86 b5 3d ec 4a 8a bb
       -0.10335174 -0.107346125 0.08863576 -0.004220357
000100 d3 8d b1 bd 20 60 dc 3b 4a 41 02 3e b9 b0 4f 3e
       -0.08669629 0.006725326 0.12720218 0.20282258
000110 10 66 48 3e f3 c8 19 3e bf 93 c0 bc 0f fa ce 3c
       0.19570184 0.15018062 -0.02350795 0.025265722
000120 12 81 51 3e 09 f0 cf bd c4 e6 aa 3c a0 aa b1 bd
       0.20459393 -0.10153205 0.02086199 -0.08675122
000130 e9 10 44 3e ab 44 12 3e 1b 2b 20 3e 51 0e 41 3e
       0.19147076 0.14284007 0.15641443 0.18853118
000140 23 f1 2d 3e 3d 4d f5 3d b8 66 ea 3c 10 07 14 3e
       0.16986518 0.11977623 0.028613433 0.14455819
000150 36 54 6a bd bb 18 54 bd 74 cb a1 bd 84 54 17 3e
       -0.057209216 -0.051781397 -0.07900134 0.14778334
000160 f4 9d 3e 3e 51 d9 67 bd d1 3c 4a 3e 0c 99 57 3e
       0.18614942 -0.056603733 0.19749762 0.21054476
000170 89 12 58 bd 71 99 45 3e 81 0d ec 3d 90 8d 5a bd
       -0.05275205 0.19296815 0.11526013 -0.05335766
000180 60 f5 0e 3e 3e 8c 85 bd ee 09 5f bd 88 0f 44 bd
       0.1396079 -0.0652089 -0.05445283 -0.047866374
000190 08 c1 60 3a 1c 07 7c bd 12 cb 12 bd e3 cc b6 bc
       0.0008573686 -0.061530218 -0.035838194 -0.022314494
0001a0 71 36 35 3e 9e 4c d3 bb 64 1e 0b bd 76 6b a4 bd
       0.17696549 -0.0064483425 -0.03396453 -0.08028309
0001b0 1a e8 16 3e dd 6b 1b 3e 6a ea 8e 3d 0a 3f 35 3e
       0.14736977 0.15177865 0.06978305 0.17699829
0001c0 ab 8a 12 3c b1 ae 05 3e 42 a8 01 3e 89 22 6a bc
       0.008944194 0.1305492 0.12661842 -0.01429046
0001d0 c4 57 2a 3e 79 b0 78 bd 1c b4 26 bd 65 66 e6 bc
       0.16635042 -0.060715172 -0.04069911 -0.028124997
0001e0 75 14 30 3e 89 e8 52 bd 7c a5 77 bd 8f f9 49 3e
       0.17195304 -0.051491294 -0.060460553 0.19724105
0001f0 13 e0 2b bd 8f dd 02 3e bd 74 35 3e 52 71 37 3e
       -0.04196174 0.1277983 0.17720313 0.17914322
000200 d7 67 8b bd 86 a1 26 3e a8 f3 88 bd 7e 1f 33 3e
       -0.06806915 0.16272554 -0.06687099 0.17492482
000210 96 92 26 3e 25 ac e2 bc 53 64 b1 bd 1c 40 8d bd
       0.16266856 -0.027669976 -0.086617135 -0.068969935
000220 d2 2c 0f 3e a0 8c 75 bd 3d 83 24 bd f7 5a 5c bd
       0.13981941 -0.059948564 -0.04016422 -0.05379769
000230 82 90 54 bd 10 af a4 3d 9f 8b c0 3d 7a 2d 0e 3e
       -0.051895626 0.08041203 0.094016306 0.13884535
000240 24 d3 0c 3e ba 1c b2 bd 41 25 65 3e d5 0a 80 3d
       0.13752419 -0.086968854 0.22377492 0.06252066
000250 15 85 29 3e 0b 58 96 3c 03 64 b1 3d ed 81 21 3e
       0.16554673 0.018352529 0.08661654 0.15772219
000260 06 7b 3d 3e 6b 3e 45 3e df 51 e6 3d 83 d6 17 bd
       0.18503961 0.19262092 0.112460844 -0.03706981
000270 33 24 4a 3e e0 5e 34 3e 52 07 38 bd 8b 92 ba 39
       0.19740371 0.17614317 -0.044928856 0.00035585868
000280 1c cd 19 3e 9a bc 02 bd f6 9f 21 3c 59 d6 58 3e
       0.1501965 -0.031918146 0.009864798 0.21175517
000290 36 9b 06 be 77 85 0a 3e 88 c8 4f bd 8c a0 09 3e
       -0.13145146 0.13527475 -0.05072835 0.1344015
0002a0 74 04 33 3e 8c 35 21 3e 40 6a 0f 3e d7 89 41 3e
       0.17482167 0.15743083 0.14005375 0.18900238
0002b0 b5 75 01 3e ab 5f 8e 3d 0d b8 c7 3d d4 ab 64 bc
       0.12642558 0.06951841 0.09751902 -0.013956983
0002c0 60 53 54 bb 3a c6 2d 3e e5 3e f2 bc d0 4c 89 bd
       -0.0032398328 0.16970149 -0.029571006 -0.06704104
0002d0 ff 6c 1a 3e 18 c8 9d bd f3 fb 01 3e fe be 18 3e
       0.15080641 -0.077041805 0.12693767 0.14916608
0002e0 90 0d 2b 3e 71 a0 15 3e 32 b3 8d bd fa 88 ee 3d
       0.16704392 0.14611985 -0.069189444 0.1164722
0002f0 79 17 c3 bd 3d 21 ff 3d 99 1e 12 3e b7 40 01 3e
       -0.095259614 0.124575116 0.14269485 0.12622343
000300 e4 da f1 bd be 02 5b bb 0c d1 eb 3d a9 cb ca bc
       -0.11809328 -0.0033418383 0.11514482 -0.024755316
000310 29 b0 4a bd 8f b7 7e bd 09 e8 b9 3c b2 5f 8b bd
       -0.049484406 -0.062186774 0.02269365 -0.06805362
000320 d7 d6 d1 3d 03 e7 66 bd 36 d8 1b 3e 8a 09 0c 3e
       0.102460556 -0.056372654 0.15219197 0.13675514
000330 4c 29 72 bd 45 54 5d bd 2c 42 02 be 3e c0 6b bd
       -0.059121415 -0.054035444 -0.12720555 -0.057556383
000340 b8 e3 0c 3e bf 48 33 3e bd 23 0d 3e 13 1b a3 bd
       0.13758743 0.17508219 0.13783164 -0.07964148
000350 73 4d 0c 3e 4f 21 f3 bb f4 14 fd 3d 2d e5 3c 3e
       0.1370142 -0.007419742 0.12357512 0.18446799
000360 d7 c3 d0 bc 7a 76 27 bd 00 10 6a 3e 79 c0 f1 3d
       -0.025484009 -0.040884472 0.22857666 0.11804289
000370 03 4c 22 be 32 46 9a bc d2 58 83 bd fc bb a7 bd
       -0.15849309 -0.0188323 -0.064134255 -0.08190152
000380 69 1e 01 3e ca e2 82 bd bc a2 d3 bc a8 c4 4f 3e
       0.12609257 -0.06390913 -0.025834434 0.20289862
000390 7e 2e 02 bd 96 d4 f9 3d ad 74 03 bb 1e 57 f5 3d
       -0.03178262 0.12198751 -0.0020058558 0.11979507
0003a0 8f 27 07 3e 2e 7a ce bc 9e 67 63 bd 0a 06 d7 bd
       0.13198684 -0.025204744 -0.05551874 -0.10499199
0003b0 65 ed 09 3e 16 9a 7f bd 08 b3 2b 3e 64 e5 a0 bd
       0.13469465 -0.062402807 0.16767514 -0.07856253
0003c0 56 07 16 3e 9a f0 42 be 61 c6 8e bd df c3 8e bd
       0.14651236 -0.19037095 -0.069714315 -0.06970953
0003d0 34 23 a7 bc d7 30 15 3e 57 bc 1c 3e 7b b0 3d bd
       -0.020402528 0.14569412 0.15306221 -0.046310883
0003e0 ca 02 21 3e a7 05 1c 3e 8e 25 10 3e 9e 22 24 3e
       0.1572372 0.15236531 0.14076826 0.1602883
0003f0 44 57 b1 bd 3c cb 04 3e 3c b7 bc bd 3d 81 ca 3d
       -0.08659223 0.12968153 -0.09214637 0.098879315

output.weight f4 [1, 256]
000000 c3 71 05 3e fc 9b 26 3d ad 76 f1 bb 16 1e 42 3d
       0.13031678 0.040676102 -0.0073688836 0.047391973
000010 aa df bd bd 22 7b 62 bd f2 43 09 3d 8a cd 00 3d
       -0.09271176 -0.05529321 0.033512063 0.031446017
000020 5a 2d 21 be 0a 58 50 3d f7 3f 48 be b0 db 1e bd
       -0.15739956 0.05086521 -0.1955565 -0.03878373
000030 77 0e 27 3d e0 8a 4a 3d 89 67 db 3c 8f b0 09 3d
       0.04078528 0.049448848 0.026782768 0.033615645
000040 44 f9 17 3d de d7 89 bd 93 07 25 3d 03 e6 2d 3d
       0.037102953 -0.067306265 0.040290426 0.042455684
000050 db 6b 3f 3d 78 c5 23 be ce bf 11 bd a6 41 1b 3d
       0.04673372 -0.15993297 -0.03558331 0.037904404
000060 cd 3b 67 bd 14 ca 53 bd 74 73 85 bd a7 a9 0c 3d
       -0.056453515 -0.05170639 -0.065161616 0.03434148
000070 a0 20 be bd 16 3d bd 3d 8a 0f 27 3d e4 3e 22 3d
       -0.092835665 0.09240167 0.040786304 0.03961076
000080 6f 42 3f be 2a e6 72 bd 0b de 0d be c9 a5 21 be
       -0.18677686 -0.059301533 -0.13854234 -0.15785898
000090 19 38 0b 3d 0e 83 53 bd ed 91 47 3d 45 2c 04 3d
       0.033989046 -0.051638655 0.04872315 0.03226878
0000a0 5a 7b fa bd 5d 77 65 bd ea b0 13 3d 8c 98 50 bd
       -0.12230559 -0.056022037 0.03605739 -0.05092673
0000b0 82 3c c8 bd 55 07 64 3d 00 6e 01 bf dd 43 32 3d
       -0.09777166 0.055671055 -0.5055847 0.04352175
0000c0 da 05 a5 bc ff be cd 3d a4 e6 ee 3c fb ba 49 bd
       -0.020144392 0.10046195 0.029162712 -0.049250584
0000d0 f9 71 0e 3d 63 ec ce bd 3b 39 2e 3d 69 ad 03 bc
       0.03477666 -0.10103681 0.042535048 -0.00803695
0000e0 af 60 f9 3c be 53 01 bd 12 bd 2a 3d db 54 07 3d
       0.03044161 -0.031574003 0.041684218 0.03303991
0000f0 13 04 1f bd 82 fb 0a bd 9c 48 91 3d 76 03 b9 bd
       -0.038822245 -0.033931263 0.07093927 -0.09033863
000100 98 55 0a bd 98 2c f2 bd f1 c8 16 3d 6d f0 f1 3c
       -0.033773035 -0.11824912 0.036812726 0.02953359
000110 a0 d4 23 3d 7b 22 27 3d 1a 74 88 ba 0f 3d a3 bd
       0.039997697 0.040804368 -0.0010410578 -0.079706304
000120 94 15 e2 3c 8c 64 40 bd e2 62 98 bd 24 e7 0e 3c
       0.02759818 -0.04697089 -0.074407354 0.0087221
000130 df 87 f8 3c a0 28 1e 3d fc b7 0c 3d 60 9f fd 3c
       0.030338226 0.03861296 0.03435515 0.030959785
000140 df c1 05 3d 7b b0 24 3d ea 7c 96 bd 5b 93 24 3d
       0.032655593 0.040207367 -0.07348044 0.04017959
000150 ee bd 17 bd c8 f7 a3 be b1 09 ce bd 97 b4 3e 3d
       -0.037046365 -0.3202498 -0.10060442 0.046558943
000160 bb e6 fb 3c a5 60 df bc cc 8d 03 3d 37 c8 f5 3c
       0.03074967 -0.027267763 0.03211765 0.030002696
000170 9d 6a 87 be 26 cb 0d 3d 86 17 5c 3d 76 b3 22 bd
       -0.26448527 0.034617566 0.05373337 -0.03972193
000180 fd 52 0a 3d 5c c1 e9 bc 19 4c 98 bb 9d 5b 2c be
       0.03377055 -0.028534584 -0.0046477434 -0.16831823
000190 0f 0c 14 bd 10 26 82 bd 02 18 cd be 99 0d 1b bd
       -0.036144312 -0.06354916 -0.4005738 -0.037854765
0001a0 b9 06 e1 3c d0 ed 99 bd fe 18 8d bd d5 52 00 bd
       0.027469026 -0.07516062 -0.068895325 -0.031328995
0001b0 4e 72 29 3d 58 c9 26 3d b2 ac bb 3d 13 47 0a 3d
       0.041368775 0.04071936 0.091637984 0.033759188
0001c0 69 a5 27 3e 94 f2 0f 3d 29 1e 1d 3d 79 80 a6 bd
       0.16371693 0.03514345 0.03835884 -0.08129973
0001d0 24 70 0a 3d cf 73 79 bd cd 8e 1b 39 16 2d 83 be
       0.033798352 -0.06090146 0.0001483515 -0.25620335
0001e0 f3 a9 1c 3d c5 1a 2f 3c 3f 48 a6 bd 78 6b d6 3c
       0.038248014 0.010687535 -0.081192486 0.026174292
0001f0 c5 07 14 bd 65 97 4a 3d c2 0d 07 3d 19 0a 0e 3d
       -0.036140222 0.049460787 0.032972105 0.0346776
000200 d8 50 77 ba f4 21 2f 3d c2 e5 09 3a a9 90 37 3d
       -0.0009434349 0.04275699 0.0005260372 0.044815693
000210 27 b9 21 3d 34 a0 66 bd 2b 95 97 bd 2b f2 86 bb
       0.039483216 -0.056305125 -0.074014984 -0.004118224
000220 fa e0 57 3d ec e5 88 bd c1 d6 fb bc 17 45 a3 bd
       0.05270479 -0.06684479 -0.030742051 -0.07972162
000230 c4 9e a5 bd f7 ba 1f 3e 22 73 74 3d 0b c2 34 3d
       -0.08086923 0.15598665 0.05968011 0.044130366
000240 da 43 36 3d 1b 69 3b bd a2 1a e4 3c 2a c6 a4 3d
       0.044498302 -0.045754533 0.02784473 0.08045609
000250 43 e3 60 3d a1 18 73 be 5b a8 6d 3d 95 6c 11 3d
       0.054904234 -0.23739864 0.058021884 0.035503943
000260 18 b7 1a 3d 6f e7 08 3d 1e ca 27 3d 15 74 1a bd
       0.037772268 0.033423837 0.04096424 -0.03770836
000270 13 13 db 3c 23 ec 38 3d 71 58 f5 bc 4d 30 83 bd
       0.026742494 0.045147073 -0.029949399 -0.06405697
000280 8b 87 47 3d 5a b2 86 bd 50 5e b8 bd 2e 23 03 3d
       0.04871325 -0.065769866 -0.09002364 0.03201597
000290 34 6c 15 be 22 ae 12 3d 16 f2 21 bd 2b 49 4c 3d
       -0.14592057 0.035810597 -0.03953751 0.049874466
0002a0 32 89 09 3d 75 2e 41 3d 83 00 41 3d 60 18 16 3d
       0.033578105 0.047163446 0.04711963 0.03664434
0002b0 57 0f 1d 3d d3 82 61 3d af 46 3e 3d 5b f7 e5 bb
       0.038344707 0.055056404 0.046454128 -0.0070180125
0002c0 e8 7c 91 bd a4 25 1a 3d 51 17 f4 bc e9 d6 1e 3c
       -0.07103902 0.037633553 -0.029796274 0.009694793
0002d0 7c 55 29 3d a7 7f 45 3c dc 21 1c 3d 26 2b 1b 3d
       0.04134129 0.0120543605 0.03811823 0.037882946
0002e0 af 81 36 3d f1 02 fe 3c 4c 12 34 bd c6 f2 0d 3d
       0.04455727 0.031007262 -0.04396276 0.034655355
0002f0 7e 9c 9b bd c2 90 0f 3d 21 78 1b 3d e1 fe 19 3d
       -0.07598208 0.03505016 0.03795636 0.037596587
000300 93 d8 68 bd 25 c9 6a be 73 7c 0e 3d 86 d0 58 be
       -0.056847166 -0.22928293 0.034786653 -0.21173295
000310 04 33 d3 3c 86 8f cf ba 24 8b c6 3d c8 84 19 bd
       0.025781162 -0.001583562 0.09694508 -0.037480146
000320 eb f9 2a 3d dc de 0a bd a5 5e 81 3d 6d 29 70 3d
       0.041742247 -0.03390394 0.0631688 0.058633257
000330 17 53 f9 bc 5e 7c d6 bc 40 93 24 bd 0c 83 07 bd
       -0.030435128 -0.02618235 -0.04017949 -0.03308396
000340 20 11 3a 3d 3b 63 28 3d 5a 63 08 3d 2f fb 3b 3a
       0.045426488 0.04111026 0.033297874 0.0007170913
000350 68 7d 4e 3d d8 b5 42 be 93 db 72 3d f1 7b 07 3d
       0.050412565 -0.1901468 0.059291434 0.033077184
000360 10 d8 d9 bd bf 2b 9b 3c 48 32 ea 3c fc a9 18 3d
       -0.10636914 0.018941758 0.02858843 0.037271485
000370 1f f4 15 be c0 10 24 be 4b 38 55 bd 37 6e 97 bd
       -0.14643906 -0.16022015 -0.05205564 -0.07394069
000380 38 99 47 3d 89 5d e8 b9 2b a6 20 be de cc f8 3c
       0.048730105 -0.00044320177 -0.15688388 0.030371126
000390 f2 22 a8 bd 5a 22 64 3d 3b 9e 33 3e a9 7b 28 3d
       -0.0820979 0.055696823 0.17540829 0.041133557
0003a0 ff 16 1c 3d 54 48 2a bd d4 31 8d bd 2b 93 a9 bd
       0.03810787 -0.041572884 -0.068942696 -0.08280023
0003b0 31 8d 1e 3d dc e6 04 bd 8d f6 cf 3c 75 4e 12 bd
       0.03870887 -0.032446727 0.02538612 -0.035719354
0003c0 f7 0e 43 3d dc 18 67 bd 07 3d d7 bd d0 4f 5b bb
       0.047621693 -0.056420192 -0.10509687 -0.003346432
0003d0 03 6b f5 bd cd 1d 19 3d ef ea 03 3d d5 b3 c4 bc
       -0.119833015 0.037381936 0.032206472 -0.024011532
0003e0 0d 8b 59 3d f6 55 38 3d 5c f5 06 3d 71 69 37 3d
       0.053111125 0.045003854 0.032948837 0.04477829
0003f0 be 36 fb ba 56 07 15 3d 63 e1 bf bb 05 cc 23 3d
       -0.0019166095 0.03638395 -0.0058557256 0.03998949
